MA_VIN_second.pth (torch_old, 24024 bytes, 11 tensors)

w f4 [20, 1, 3, 3]
00000000: 6be2 133d 7a3a 91bd a62d 42bd bb9d 0ebd
00000010: 7df7 83bd 627a 70bd 9a2e 82bc 3437 d03c
00000020: 76c3 313c 29e2 ef3d cae6 9d3d 1f90 e1bc
00000030: 157b 293e 4987 f73c ee01 23bd d575 aa3d
00000040: 94ab 713d fa81 f1bc d087 c4bd 6c07 8dbc
00000050: 6356 15bc 7b78 c93d 647d e9bd d206 2ebd
00000060: afb1 84bd b0ce 6cbd e1bb 88bd e01b a2bc
00000070: 6d3e 0ebd 3858 833c b077 49bd bb8d e03b
00000080: 993a 933d fa52 933a c9d4 25bd e6fc 1e3d
00000090: 04e9 b63a 072f 84bd c042 3fbb f587 d93a
000000a0: 3983 1fbc 23f7 14bd 43ac 283d b0a3 abbd
000000b0: fe17 d1bc 93f2 81bd fead edbd 4cba 0ebd
000000c0: 964c 593c 706c 6c3d d0a2 40bd e28a a63d
000000d0: 92fb 393d d979 353d 6aef c13c 31dc 7b3e
000000e0: 1943 e73c 85e3 923e 4867 893e 426f 6b3e
000000f0: aae7 10ba a73f 943e d860 17bb 51e0 90bc
00000100: 6717 12bc 1b12 0bbd 043c bebd dc86 8cbd
00000110: d8a1 4fbd 571d 083c 7c78 953c 2c52 523d
00000120: e0fc 3f3c 885a 2b3c b25f 3f3d da18 f13c
00000130: db5c 41bc 6be4 a5bc 3f5f 4fbd e8a5 0cbd
00000140: 1450 883c c40b 523e 8ced 953d 69d8 2c3e
00000150: 27c9 bc3d 43ca b9bc 3009 463e c542 3d3e
00000160: ecb0 ce3d 92a1 253e 6e5d 843c ae2e 423b
00000170: c682 6e3d 5167 c4bd 44d3 963d 1c74 5a3d
00000180: a542 aabc 3b4b 0f3d 58be 2d3d 48b5 c33c
00000190: fc24 533c eea2 e93b e9ce 5cbc 6c90 793c
000001a0: 413f 943d 2df5 153d cc30 aabd 847a 3f3d
000001b0: e035 0f3c 425b f73c cff3 59bb 9bf4 593d
000001c0: 15bc 19bd 8fa9 da3c b006 913a 47c6 a33d
000001d0: 36aa 9a3d b646 e33c 9bb6 eabd e1e9 b03c
000001e0: a46a 59bd 489f 60bc 67e5 2dbd b3cf 4dbd
000001f0: e261 6e3a 3b87 6dbd 64b0 643d cd5a 023e
00000200: 3b0c 933c a1ce 23bd 968e e1ba 97ad 88bd
00000210: 5d5d 973d f1e4 7fbd af72 0dbc b7b1 73bd
00000220: d776 363d 8e72 67bd b416 47bd d3cd debc
00000230: 435f 88bd 2dc1 963d 1159 a93d 022e b3bb
00000240: b40f 633d c93d c7bd 76ff f0bb 0e30 e3bb
00000250: fb98 c43d 900b 113d df1b 683a d332 5fbd
00000260: d390 533d dbe4 fdbc e94e e7bd 4bfa e3bd
00000270: 4ca4 833c c97d 58bd c80d 823b 1013 1abd
00000280: 8509 46be 2070 8dbc 4bb5 ef3c 3bf6 483d
00000290: 3970 743d e90c a3bd b144 e7bc 3579 80bc
000002a0: e5c3 42bd a0d0 a3bd 7145 94bb 16dd 003d
000002b0: c544 f53b a4c1 c13c 98eb 983b 5106 1abc
000002c0: 7d7e 8b3c 0c84 9abb 4869 b2bd 0c95 9c3c
0.0361046 -0.07091232 -0.047406815 -0.034818392 -0.06443689 -0.058710463 -0.015891362 0.025416948
0.010849824 0.117130585 0.07710035 -0.027534543 0.16550858 0.030215876 -0.039796762 0.08323256
0.05900152 -0.029480923 -0.09596217 -0.017215453 -0.0091148345 0.09837433 -0.114008695 -0.042486973
-0.06479203 -0.0578143 -0.0667646 -0.019788682 -0.034727503 0.016033277 -0.04918641 0.006852833
0.07188911 0.0011239939 -0.04048613 0.0388154 0.0013954942 -0.06454282 -0.0029184073 0.0016596304
-0.009735876 -0.0363685 0.041179907 -0.0838083 -0.025524136 -0.063450955 -0.11605452 -0.034845635
0.013262888 0.0577206 -0.04703027 0.081319585 0.04540593 0.044305656 0.023673732 0.24595715
0.028230237 0.2868921 0.2683661 0.2299166 -0.00055276847 0.28954813 -0.0023098495 -0.017685087
-0.008916712 -0.033952814 -0.09288791 -0.0686166 -0.050691456 0.008307776 0.018245928 0.051347896
0.011718005 0.010458596 0.04672212 0.029430795 -0.011801924 -0.02025052 -0.050627943 -0.034337908
0.016639747 0.205123 0.07320699 0.16879429 0.09218054 -0.022679454 0.19339442 0.18482502
0.10092339 0.16174915 0.016157832 0.0029629874 0.058230184 -0.095900185 0.073645145 0.053333387
-0.020783732 0.034983855 0.042417854 0.023890153 0.012887236 0.0071300184 -0.013477066 0.015232187
0.07238627 0.03661077 -0.083100885 0.0467477 0.008740872 0.030194882 -0.0033256894 0.05321179
-0.037532885 0.02669218 0.0011064615 0.07996803 0.075519964 0.027743679 -0.114606105 0.021595897
-0.053080216 -0.013709851 -0.042455103 -0.050246906 0.0009093565 -0.057990294 0.05583228 0.1272995
0.017950168 -0.03999198 -0.0017208632 -0.06673735 0.073908545 -0.062474195 -0.0086333 -0.059495654
0.04454693 -0.056505732 -0.048605636 -0.027197754 -0.06658795 0.07361064 0.08268941 -0.005468131
0.055434898 -0.097285815 -0.007354672 -0.006933219 0.09599491 0.035411417 0.0008854251 -0.05449183
0.051651787 -0.030992916 -0.11294348 -0.11131724 0.016069554 -0.052854333 0.003968928 -0.037615836
-0.19339569 -0.01726538 0.029261252 0.04906295 0.059677336 -0.07961447 -0.028230997 -0.015682796
-0.0475501 -0.079987764 -0.0045248796 0.031460844 0.0074850046 0.023651905 0.004666757 -0.00940092
0.017028088 -0.0047154482 -0.08711487 0.01911404

h.weight f4 [150, 3, 3, 3]
00000000: 4be7 94bd 51e0 a33d b9f5 c0bc ec91 1d3e
00000010: 4f1b d5bc bca9 27be e78a 2ebe 4fef 843d
00000020: 479a 1d3c 8106 78be c156 a5bd 9307 98bd
00000030: bd64 2abd ae5e 033f aa5a 003e 8088 95be
00000040: 6303 e33d ae66 b5be 2928 b2bd 9650 d3bd
00000050: 7aec d83d b4d9 023e 21d8 2cbe 0b51 62bd
00000060: 0fc4 113d 207d 103e 1c6b 26bd 3b9a d7bc
00000070: eda4 30bd d5f2 63bd 7c33 a4bc 2526 15be
00000080: b7a1 32be 12eb 5dbc 5fe2 3b3e b439 1d3e
00000090: 271e c2bd c722 093e c9a2 673d d45e 1e3e
000000a0: 70db 86be 9736 02be 7b73 c73d b1d8 913d
000000b0: f9d8 713e 8e6b 39be be82 003e 47e4 2fbe
000000c0: bda6 08bc 8f12 fd3d eeb5 ca3c 679f e43d
000000d0: 616d 9ebd 13f5 333d 9fa1 183e 8e87 ef3d
000000e0: 30ea bb3d b8b2 86bd d580 22bd bbc5 50bd
000000f0: 936e 65be a0f9 e33d 92fa 3cbe 3984 dbbd
00000100: 746e 3dbd 47e8 96bd 86e6 b43b c544 d53e
00000110: 2243 053e b620 95bd 6bbf 843e 4df7 25be
00000120: 5254 aaba d873 383e 0379 a93d 692e 16be
00000130: de33 59be 32f9 5d3d bc17 1ebe 9f08 0b3e
00000140: 1246 f03d ca8e b63c 2f5d 1d3d 4ccc 9d3d
00000150: b6e8 2d3e ffee a73e 3c96 193e 562b 67be
00000160: b9a1 30be 6023 47be 6b3b e9bc 2148 89bd
00000170: db0c 5bbe dcdc 6d3b 906b a63e fe9c 49bd
00000180: bb50 eb3d a93a db3d 0961 babd b9b5 2cbe
00000190: cd70 d0bd 85fb c03d 33f4 343d 3bd2 a0be
000001a0: 54f7 1b3e 3eac 993d 5b9c a63d e5cc c0bd
000001b0: 9646 413d 2671 3c3e 38b4 023d 7e6c 94bd
000001c0: b257 a8be 17a5 89bb cca5 c5bd 60a9 a4bd
000001d0: 197f e03d 652c 4b3e 286d e1bd 5f94 2c3e
000001e0: 988c f23d 77a9 fdbe cbe8 c1bd 1dd1 003e
000001f0: cbce f53d d4fb 123e d47e b23c 9b58 e13d
00000200: c2e3 2bbe 540b 8a3d d3b8 213e f2f7 c23c
00000210: a9b1 a1bd c11c 05be 4111 033e 2289 f9bb
00000220: 4f42 2f3e 0dac a5bd 2aa2 23be b9b8 4bbd
00000230: 5ec8 2c3e b5d9 923c 513a ccbd 9581 6bbd
00000240: 4318 c5bd 6059 65bb 3ed5 053e 2635 e6bd
00000250: 93c3 1cbf 6644 5fbe 01b4 7fbd cfe8 43be
00000260: d3ac 1e3e 9fce 17be 1d75 853d 785d 0dbe
00000270: 90c0 3fbd 3e51 043e 2ee5 243e 169c b2bd
00000280: a6f6 053e 8599 81bd 0da6 65bd 7b5e d4bd
00000290: 75ab 2cbd bf34 123e 09d6 043e 9d5c 0b3e
000002a0: bc5a b23d e88b 43bd 77bc 223e b9f7 24be
000002b0: 44e6 db3c ba57 9f3d 5b6c 013e 3ea7 933e
000002c0: 1bc9 f7ba 4131 c6bd c2e8 a9bd ee65 12be
000002d0: 424b 403e 04f0 9b3d 9b25 9abd bbc8 eb3d
000002e0: 763b a6bd 53b5 203e f7c2 24be 877b ffbd
000002f0: c51d bc3d ad70 d7bd 812a 6d3d 41c2 693d
00000300: 497f 4bbe 860a 393e 0cf6 303e a5a5 4fbe
00000310: 570f aabd 2577 55be 0b63 babd d02b 75bd
00000320: 9eb0 30be a6c9 a7bc 21aa 8c3e 9ef2 263e
00000330: d73b 3cbe 8f11 aabc 1c54 94bd 400b 3e3e
00000340: dfd0 05be f006 423d 9544 743d c41a abbe
00000350: 340a 953d 5e44 9ebd 1294 12bd 69e3 23be
00000360: b542 9c3d 0884 ec3d 8805 32bb 421e 503d
00000370: 19da ac3e a5c5 9b3d 705a 1ebe a640 37bd
00000380: fc0f e13c 49da 0c3e d661 8a3c 33ff 253e
00000390: 6f3c ecbc 76f0 e03e 6949 ee3d 75ea 6abb
000003a0: 51b6 173c 00f0 63be 44f8 303e b36d c93d
000003b0: 3e99 903d 2264 b43c f62b e5bb 6ffb bcbc
000003c0: 5467 1dbe f65b 343d 7a07 b9bc 1701 b63d
000003d0: 49e4 b93d 7f1c 523e 54a3 1bbe 59d2 b9be
000003e0: b771 03be 00b7 4f3e b1bc e53d b863 843d
000003f0: 0bfc 913a 1452 033e 8d0d 52bc 1211 383e
-0.07270678 0.08001769 -0.02355467 0.15387696 -0.026013998 -0.16373342 -0.17045175 0.06490957
0.009619302 -0.24221231 -0.080731876 -0.0742332 -0.041599978 0.51316345 0.12534586 -0.29205704
0.1108463 -0.354299 -0.08699066 -0.10318105 0.10591979 0.1277836 -0.16879322 -0.05525307
0.035587367 0.14110231 -0.04062949 -0.02631866 -0.043126035 -0.055651505 -0.02004408 -0.14565332
-0.17444502 -0.013544815 0.18348072 0.15354043 -0.09478407 0.13392173 0.05655173 0.15465862
-0.26339293 -0.12716137 0.09738823 0.07121409 0.23617925 -0.18107435 0.12549874 -0.17176925
-0.008340535 0.123570554 0.024744954 0.11163216 -0.07735706 0.043934893 0.14905404 0.11695777
0.09175527 -0.06577057 -0.039673645 -0.05096982 -0.22405462 0.111315966 -0.1845496 -0.10718579
-0.046247914 -0.07368522 0.0055206446 0.4165403 0.1301389 -0.0728163 0.2592729 -0.16207619
-0.00129951 0.18012941 0.08275034 -0.14666142 -0.21211192 0.05419273 -0.15438741 0.13577507
0.11732115 0.022284884 0.038418945 0.07704982 0.16983303 0.32799527 0.14998716 -0.22575125
-0.17249192 -0.19447088 -0.028470716 -0.067032106 -0.21391623 0.0036294973 0.3250394 -0.049221985
0.114900075 0.10704548 -0.09100539 -0.16866197 -0.10177765 0.094229735 0.0441782 -0.31410393
0.15231067 0.07503556 0.08135291 -0.094140805 0.047186457 0.18402538 0.03191015 -0.07247256
-0.32879406 -0.0042005884 -0.09650764 -0.08040118 0.10961742 0.19841154 -0.11007148 0.16853474
0.118432224 -0.49543354 -0.0946823 0.1257977 0.12002333 0.14353877 0.021788992 0.11003228
-0.16786101 0.06740442 0.15793161 0.02379987 -0.07895214 -0.1299925 0.1279955 -0.0076152245
0.17115138 -0.08089457 -0.1597983 -0.049736712 0.16873309 0.017926076 -0.099720605 -0.057496626
-0.09623768 -0.0034995899 0.13069627 -0.11240606 -0.6123592 -0.21803436 -0.062427524 -0.19131778
0.15495615 -0.14824913 0.06516478 -0.13805187 -0.0468145 0.12921616 0.1610305 -0.08721177
0.1308237 -0.0632811 -0.05606656 -0.10369583 -0.0421557 0.14277934 0.12972273 0.13609548
0.087087125 -0.047740847 0.15892206 -0.16110124 0.026843198 0.077804044 0.1263899 0.28838533
-0.0018904539 -0.09677363 -0.08296348 -0.14296696 0.18778709 0.07614139 -0.07526704 0.11512896
-0.0811681 0.1569417 -0.16089998 -0.12474733 0.091853656 -0.10519538 0.057901863 0.05707002
-0.19872774 0.1807042 0.1728136 -0.20278032 -0.08303707 -0.20846231 -0.09100922 -0.059856236
-0.17254874 -0.020481896 0.27473548 0.16303489 -0.18382202 -0.020760326 -0.07242605 0.18558979
-0.13067959 0.047369897 0.059635717 -0.33418858 0.07277337 -0.07727884 -0.035785742 -0.16004719
0.07629911 0.115486205 -0.0027163941 0.050810106 0.33760145 0.07606057 -0.15464187 -0.044739388
0.027473442 0.13755144 0.016892355 0.16210632 -0.02883741 0.43933457 0.116350956 -0.0035845314
0.009259776 -0.22259521 0.17282206 0.098353766 0.07060479 0.022020403 -0.006993766 -0.023069112
-0.15371448 0.044033013 -0.022586573 0.088869266 0.09076745 0.20518683 -0.15199023 -0.36293295
-0.12836348 0.20284653 0.11217631 0.06464332 0.0011137737 0.12824279 -0.012820614 0.17975262

h.bias f4 [150]
00000000: 04fb 003e d04b 3dbc 5578 c03c d727 ddbd
00000010: 2b4a 02bc 7d3d f2bd 2230 68be d4b2 0c3d
00000020: 4df8 35be d498 07be 8ce4 5e3d 636b 74bd
00000030: 2e11 8b3d fa28 e73d 4514 123e 1f33 9a3d
00000040: c735 f0bd 5de9 d7bd 80a1 a83d 6de8 193d
00000050: 23cf 3abe 11f2 353d 8c03 a8bd 31a8 2cbe
00000060: 41ae b8bd 11ea 8e3c 5f53 f2bd b582 babd
00000070: 8ae6 41be d9e2 fb3d aa30 793d 12c5 9b3d
00000080: ebde dbbd 9b4e 82be 4ab7 b8bd da76 5dbe
00000090: 5aa7 6dbe 2b13 c2bd 94dd b83d 3537 d83d
000000a0: f2c1 393e 6262 fc3d d726 003e c171 473d
000000b0: 7ea6 ccbd 717d aa3c 97df b83c eed9 4a3e
000000c0: 4a7b a8bd b5e5 ccbd 1456 e2bd 2cee c93d
000000d0: f125 fd3c 32d2 3bbe 9ab9 5b3e fc28 d9bc
000000e0: 8c3c 1ebc a27c 9dbd 92c8 723d 2156 84be
000000f0: ae81 163e 1cbb 61bd 5800 7bbd 1d8c 52bd
00000100: 4b03 c13d 347b ea3c bd69 cd3d 8db2 b13c
00000110: 857e 3f3d 510d 6bbd a348 443e 7e60 303d
00000120: 8e51 053e 2639 d5bd 6604 bb3d c466 6c3e
00000130: bf20 e63d 27b1 833d 69e8 373e fdd9 e2bc
00000140: 0652 663e c83f a6bd 0dc4 083e ccce 503d
00000150: 3278 2abd 9993 e5bd 5f52 0e3e da84 45be
00000160: bca2 53bd 101f fcbd 93cb 573e 089e 0a3d
00000170: 39bc 88bd c1b7 d63d 5ec6 35be d8a9 923d
00000180: f926 063d acf5 4c3d 8ec9 9e3d ea6b 32bd
00000190: cc0e eb3d 1fbc 8bbe f1e6 7bbe 4585 eb3d
000001a0: e0c1 b53d a834 03bd 2078 5cbe 45d1 f1bd
000001b0: 0b37 1e3e d869 f0bd 557f e9bd 68b6 33bd
000001c0: 8b4e 323c fdf2 793d ea1a 8a3d 96b8 9b3d
000001d0: 72e2 863c d40b 9cbd 4d3b 18be 47eb 18be
000001e0: 2874 843d 450e 30be 6a12 25be f249 7d3e
000001f0: 6c02 7cbe 251f 08bd 524c 22be 129e 033e
00000200: 2b5f 5e3d 9ff0 be3b dce3 1fbc ffb1 a8bc
00000210: 0462 3ebc 1a47 653e ba8c acbc a89e c03d
00000220: bc7a 9bbd 5a8c 803e 3dad d6bb 6108 53be
00000230: 726a 6b3d 2cf2 5d3e 5650 193d 4b36 9ebd
00000240: bfc2 bd3d d550 2cbd 7700 c9bc f147 063e
00000250: e88e ad3d f4b9 133d
0.12595755 -0.01155372 0.023494879 -0.107986145 -0.007952253 -0.11828134 -0.22674611 0.03435023
-0.177705 -0.13241893 0.054417178 -0.059672724 0.06790386 0.112871125 0.14265545 0.07529282
-0.11729007 -0.105425574 0.08233929 0.037575174 -0.18243079 0.044420306 -0.082038015 -0.16861035
-0.09017611 0.017445596 -0.11832308 -0.09106962 -0.189356 0.12299127 0.060837425 0.076059476
-0.107358776 -0.25450596 -0.090193346 -0.2162737 -0.23208371 -0.09476312 0.09026638 0.10557405
0.1814039 0.123234525 0.12514816 0.04869247 -0.09992693 0.020811768 0.022567553 0.19809696
-0.082266405 -0.10004751 -0.11051574 0.09859881 0.030901881 -0.18341902 0.2145752 -0.0265088
-0.00965799 -0.076897874 0.05927331 -0.2584696 0.14697906 -0.055110082 -0.061279625 -0.051403154
0.09424456 0.028623201 0.100299336 0.021691585 0.046751518 -0.057385746 0.19168334 0.043060772
0.13019392 -0.10411291 0.09131698 0.23086077 0.112367146 0.064302735 0.17959751 -0.027691836
0.22492227 -0.08117634 0.13356037 0.050978467 -0.041618533 -0.11209793 0.1389861 -0.1928896
-0.051668867 -0.12310612 0.21073751 0.033842117 -0.066765256 0.10484267 -0.17751452 0.071613014
0.03275201 0.05003898 0.07753287 -0.043559946 0.11477432 -0.27291963 -0.24599816 0.115000285
0.08874869 -0.03203264 -0.21530199 -0.11807493 0.15450685 -0.11738938 -0.1140124 -0.043875128
0.010882984 0.061022747 0.06743415 0.07603566 0.0164654 -0.076194435 -0.14866371 -0.14933501
0.064674675 -0.17192943 -0.16120306 0.24735239 -0.24610299 -0.033232827 -0.15849426 0.12853268
0.054289978 0.005827024 -0.009758916 -0.020592688 -0.011620048 0.22390404 -0.021063197 0.09405261
-0.07591769 0.2510708 -0.0065514133 -0.20608665 0.05747456 0.21674412 0.03743013 -0.07725199
0.092656605 -0.042069275 -0.024536354 0.13113381 0.08474523 0.03606601

r.weight f4 [1, 150, 1, 1]
00000000: 0c8a cf3d 9b3a 993d 5858 683d ca4e c9be
00000010: 5c1e ae3e ab51 093e f72f 86be f63a 0fbe
00000020: 7212 83be 1217 553e 1bb8 413e 9f70 343c
00000030: eef8 5bbe d38c b73e fb73 263f d2ce 69bc
00000040: 0953 e8bc b62d 53be 2aee 94be 3e83 013e
00000050: 4f90 13be 8979 983e 0f27 4c3e b894 9fbe
00000060: ad5d 883e ce05 b23d ce90 95bd 202b 8dbe
00000070: 4e3a dabe 0ece 3d3f 0e96 c13e 935a 8a3e
00000080: 4e0d fe3d 8fc3 e8be d4d8 64be b094 0fbf
00000090: b6ea dbbe 79d6 64be 3a1d 24be aba9 2ebe
000000a0: a97c 133f d9eb af3e af9d 04bd 9197 78be
000000b0: dae6 693d e627 b4be 7fbd 213e 4c2b 923e
000000c0: bd9e 09be dd5b aebd 3cdd f33d 9dfd 5d3e
000000d0: e0c5 6a3e 5da4 a8be 264e ab3e f2b3 3abe
000000e0: f276 4e3e 8675 87be 734f 43be 589f a3be
000000f0: 65aa b03e fd29 603e ad34 033e 1083 22be
00000100: 3e3d 48be 0763 7cbe f827 383d 2cfb 2d3e
00000110: f59f 8dbe 17a6 81be 1934 a43e d622 ebbc
00000120: 0e28 8dbd 8a7a 93be 2372 afbd 09f7 ae3e
00000130: aba1 14be 95b4 a93e f01a 173e d0aa 57bd
00000140: bfea 933e 2efb 4c3e c9bf cf3e 22d0 3a3e
00000150: 302b 593e 625a acbd ad20 963e e904 6dbf
00000160: 1f79 083e c177 47be 222d 5e3f 7f76 b13e
00000170: 075a 9b3e 78fc 933d 7418 a0be 9422 813e
00000180: d285 e9bd d04c 443e bd3a 5bbe 92ad 663e
00000190: 001d d03e 32bf 5abe 55ab a0be 06f6 da3e
000001a0: beaf 41be 886a 66be 767b f9be 9e98 adbe
000001b0: 743e d33e 8922 4b3e b88b 3f3e 9393 62be
000001c0: 46bf 8e3e fe1d 733b 12cd 293e 57fe 8b3e
000001d0: 1cce 9fbd 7225 92be c59a 4fbe 44ac 12bf
000001e0: 6eca 1b3e 52c3 9dbe 05d9 97be 3ee8 ba3e
000001f0: 1122 19bf 2118 343e 9b35 bcbe 2b9c de3e
00000200: 3b6d fabd 3149 9abe c7e4 fb3d 15d1 27be
00000210: 6fcc 703e a82b a03e 1b84 8ebe fcc2 cd3e
00000220: 5a74 92be 1206 8a3e 15fb 8cbe bf18 b7be
00000230: afe0 1fbe bbe9 213f a74b 063e 288f 4cbc
00000240: 5cfa 4d3e fed1 c03d 794d 0a3d d960 d73e
00000250: 53df 2d3e 845b 0e3e
0.10133752 0.07481881 0.056724876 -0.39317924 0.34007537 0.1341006 -0.2620847 -0.13987336
-0.2560001 0.20809582 0.18917887 0.011013179 -0.21481678 0.35849628 0.6502072 -0.014270501
-0.028359907 -0.20622906 -0.29087955 0.12647721 -0.14410518 0.29780224 0.19936775 -0.3116815
0.2663397 0.086925134 -0.0730301 -0.27571964 -0.42622608 0.7414254 0.37809795 0.27022228
0.124048814 -0.454617 -0.22348338 -0.56086254 -0.42952508 -0.2234744 -0.16026774 -0.1705691
0.5761209 0.34359625 -0.03237694 -0.24276568 0.057104923 -0.3518669 0.15794943 0.28548658
-0.1343946 -0.08513615 0.119074315 0.21678777 0.22927046 -0.329379 0.3345806 -0.18232706
0.20162562 -0.2645685 -0.19073276 -0.31957507 0.34505 0.21891017 0.12813063 -0.15870309
-0.19554612 -0.24647151 0.044959992 0.16990346 -0.276611 -0.2532203 0.32070997 -0.028703135
-0.068924055 -0.28804427 -0.08566692 0.34172848 -0.14514796 0.33145586 0.1475637 -0.052653134
0.28890035 0.20017692 0.40576008 0.18243459 0.21207881 -0.08415677 0.29321805 -0.9258562
0.13327454 -0.19479276 0.8678762 0.34660718 0.30342123 0.07225889 -0.31268656 0.25221694
-0.11402477 0.19169927 -0.21409126 0.2252715 0.40647125 -0.21361998 -0.31380716 0.42765826
-0.18914697 -0.22501576 -0.48727006 -0.339055 0.41258585 0.19837393 0.18705642 -0.22126608
0.27880305 0.0037096734 0.16582134 0.27342483 -0.07802984 -0.28544194 -0.20273884 -0.57294106
0.1521394 -0.3081308 -0.2965776 0.36505312 -0.59817606 0.1758733 -0.36759648 0.43478522
-0.12227865 -0.30133966 0.12299495 -0.16388352 0.23515485 0.31283307 -0.27835163 0.40187824
-0.28604394 0.26957756 -0.2753531 -0.35761067 -0.15613054 0.6324727 0.13114797 -0.012485303
0.20115036 0.09415053 0.03376529 0.42066076 0.16979723 0.13902098

q.weight f4 [20, 1, 3, 3]
00000000: 618e 77be c3e6 f03d ef6b 3ebe db12 25be
00000010: 6366 94be d1e8 ba3d b8b3 89be 8d14 7ebe
00000020: 84e0 993d aaef 733e 2489 c0bc af9e 36bd
00000030: 1208 c3be 41a9 bdbd 358b 243e c5c3 843d
00000040: 713b 99be dc71 963d 0b2a 0f3e 75b3 38be
00000050: 2615 ad3d d8b0 80be d41a 463f 2413 463e
00000060: 2994 b5bd cc31 5abe 17fb 3f3e 6e69 583d
00000070: d0e6 2a3e 546a 5dbd bb2b 1f3e 0f57 7abe
00000080: d831 a1be 713d 52be 68e1 acbe c115 abbc
00000090: 48fd 033e ab27 4a3e af21 963c db06 b23d
000000a0: 8d7d 88be 31f0 fabd d5a6 12be 60e7 a03e
000000b0: 0f5a 06be 6fcb 4f3d 0df9 0d3e 4697 b63c
000000c0: 96d2 3ebe 1051 ffbe eca7 8e3e 6af6 69be
000000d0: b79f 853d 7c02 f3bd 0d4c 1bbe ebb0 08bf
000000e0: be3f 82bd 5893 02bf ca14 9dbf 3c52 d5be
000000f0: 8a67 20be 4e81 d3be 6756 3fbe d328 183e
00000100: 9668 b5be ca53 aebe 0028 a73d 0c57 10be
00000110: 4080 943e ef1e e6bd c803 c93e a7f0 8bbe
00000120: d3ed 30be 9b72 75be a16e 55bd 9c62 12be
00000130: 2b0f 13bf 988e ac3e c9f2 103e a5c1 a5bb
00000140: 7a0a c2bd 4e93 83be f437 69be 0d5c 5abe
00000150: 00f9 78be 970b 2c3d 9f1d 0dbe 5700 2cbe
00000160: 1c17 15be 1da9 3ebe deb3 353e b788 0f3e
00000170: 1fff 083e 77eb 07be 1c12 89be facd 23bc
00000180: 9796 35bd 9a99 e4bd 6294 7b3d 3af8 e43d
00000190: 2f60 8abe 7b0f 52be 160e 87be f15a 86be
000001a0: cef8 39bd d737 efbd 22dc 763e ee46 ba3d
000001b0: fb96 88bd c2f9 993d b656 dabc 8c60 783d
000001c0: baa4 6e3e 5be8 cabd 3440 3abd f8db 07be
000001d0: e272 6ebe f543 b73d 2f13 5c3d e44a 8ebe
000001e0: 2da8 b93e d3a3 8cbe e5d0 23be 6096 573e
000001f0: 0a0c b9be 2569 173e 2d7e 783d f73d c23a
00000200: e06d 9fbd 46be c33e 01cb 92be cbd8 1e3e
00000210: c2be 16be 9103 ab3d ba6e 29be 34c0 08be
00000220: 88ae 25bf c6fa 513e f181 933e 8f83 98bd
00000230: bf1d 85be 1768 7cbc 9db4 b53d 1334 933d
00000240: 8be4 39be 50ba afba 7a66 013e 3bd3 893e
00000250: 6c26 4fbe fc0c 893d 24b3 5e3d 7c69 903e
00000260: 69dc 43be ec2d 993e 3e66 23be f27a 3d3e
00000270: 3d42 bbbd 4b99 b03d e8bb 12bd d3c7 e33d
00000280: 785f 4c3a f109 4e3e 055f 19be 68fd 01be
00000290: 27a3 50bd 230c e83d b5b3 1bbd 0508 ec3e
000002a0: 4e5c 80bd d49f 833d c60b bf3d e88e 8fbe
000002b0: 13cc 2f3e 17f6 92be 5257 61be c028 99bc
000002c0: e8d4 8fbe a984 45bc e848 b83e dd21 4e3c
-0.24175407 0.11762764 -0.18595861 -0.16120474 -0.28984365 0.091264375 -0.26894927 -0.24812527
0.07513526 0.23821893 -0.023502894 -0.044584926 -0.38092095 -0.09260798 0.16068728 0.064826526
-0.29928163 0.07345936 0.13980882 -0.18037207 0.08451299 -0.2513492 0.77384686 0.19343239
-0.0886615 -0.21308059 0.18748127 0.05283492 0.1668961 -0.05405648 0.15544026 -0.24447273
-0.3148334 -0.2053125 -0.3376572 -0.020884397 0.12889588 0.19741695 0.018326608 0.08692714
-0.26658288 -0.12252844 -0.14321454 0.31426525 -0.13120292 0.05073112 0.13864537 0.02228893
-0.1863502 -0.49866533 0.2786249 -0.22847906 0.06524604 -0.11865708 -0.1516573 -0.53394955
-0.06359814 -0.5100608 -1.2271969 -0.41664302 -0.15664497 -0.4130959 -0.18685304 0.14859323
-0.35431355 -0.340483 0.08161926 -0.14095706 0.29004097 -0.11236369 0.39260697 -0.2733204
-0.17278223 -0.239695 -0.052107457 -0.14295429 -0.5744502 0.3370254 0.14155115 -0.0050584846
-0.094746545 -0.25698322 -0.2277525 -0.21324177 -0.24313736 0.04200324 -0.13780831 -0.16797005
-0.14559597 -0.18619199 0.17744395 0.14016996 0.13378571 -0.13273416 -0.2677163 -0.009997839
-0.044333067 -0.1116211 0.061420806 0.11180158 -0.27026507 -0.20513718 -0.26377934 -0.26241258
-0.045403294 -0.116805725 0.24107412 0.0909556 -0.06669422 0.07518341 -0.026652675 0.06063895
0.23305026 -0.099075995 -0.045471385 -0.13267505 -0.23286012 0.08948509 0.053729232 -0.27791512
0.3626112 -0.27468738 -0.15997656 0.21053457 -0.36141998 0.14786203 0.060667206 0.0014819492
-0.07784629 0.38231105 -0.28670505 0.15512387 -0.14721206 0.083502896 -0.16546145 -0.1335457
-0.6471944 0.20505819 0.28810075 -0.07446968 -0.25999257 -0.015405676 0.0887234 0.07187667
-0.18153588 -0.0013406966 0.12636748 0.2691897 -0.202295 0.0669193 0.05437006 0.28205478
-0.19127049 0.29917848 -0.15956971 0.18503931 -0.09143493 0.08622988 -0.035823733 0.11122098
0.00077962084 0.2012098 -0.14977653 -0.12694323 -0.050936844 0.1133044 -0.03801318 0.46099868
-0.06267606 0.06426969 0.093284175 -0.28038716 0.17167692 -0.28703377 -0.22005966 -0.018696189
-0.28092122 -0.012055554 0.35993123 0.012581316

fc_1.weight f4 [24, 20]
00000000: af0d 32be 7ae4 353d 24cc b8be b55b fd3c
00000010: beda 663e 6de3 103d 6317 343e df15 31be
00000020: 4108 08be ad64 243d 8387 073e f515 0f3e
00000030: 8604 4abe 6ddf 3b3c f0b1 e13c 5c51 2abe
00000040: ac4b 7d3e b31f 55be 21e0 f0bd 0a97 123e
00000050: 17fb b83c 66c1 123e c82d 90bd c0a6 64be
00000060: 05f7 43be a75e 9dbe 1218 d53b 98cc a7bc
00000070: fbee a9be 4210 1dbe 0470 25be 38df 8bbe
00000080: ba79 b5bc 4fdb 25be 4062 3e3e 06fa 873e
00000090: 3ec3 8cbe 7baa c6bc 4693 56bd 0a7a 2bbe
000000a0: f266 11be bf89 a7be 7092 9d3e daea 8d3d
000000b0: 477d 1ebe 7c8f d2bc 61da 4f3d f1a1 2abd
000000c0: 6fa6 c4be 5de4 62bd 9dd9 643e 0fe3 81bc
000000d0: ca5a cb3d 8a08 b53b f464 8abe 705e 39bd
000000e0: 3e2b da3e fdc4 dc3c 1ef6 513e c5dd 34bd
000000f0: 6848 42bd 3f80 953d 1670 063e 94a5 183e
00000100: b997 0a3e a980 d0bd ccd3 333e e48a 26be
00000110: 7087 bdbc d3ed 553e 3af9 04bb 1c56 23bd
00000120: b4ea 8f3e 857e 5c3e 423f 4d3e e314 683e
00000130: 23f4 903d ae38 b83d 54be 663d 4906 173e
00000140: 119f f9bd 6097 b8bd dcad 91be df9c 1ebd
00000150: 7b45 f4bd e366 c73e cd80 d7bd 300c 04bc
00000160: 8688 aebe 3512 33bc 630e e73d 3df9 e53d
00000170: 2679 15be d7c7 42bd 5517 41be 12f3 833e
00000180: d37b a13e ef7c 063e 1c07 643d c132 633d
00000190: cbb7 7b3d 3cba d93d aea7 b93e d831 bcbe
000001a0: a00b 8e3d df7d 5d3e 8af5 7fbd 6ef1 3e3e
000001b0: e362 83be c191 603d c623 63be 9490 99bd
000001c0: 1a0b 0f3d 3c24 393e 6e28 88be 72b4 d83d
000001d0: 1ac4 61be c0f7 abbd 95d8 f4bd 1b98 99bc
000001e0: fa4e 74be 7556 0cbe a5fc d23d 0619 27be
000001f0: e4ec b1be 4217 1cbe 2627 e6bd 102d 893d
00000200: c40f 9bbe 9806 a23c 335f 8bbc 7a72 48bd
00000210: c032 b43c 7bdf af3d 5aae ab3c 36d3 4a3a
00000220: a58c ccbe 1aaf 36be dfc5 033e 2fae aebe
00000230: 1005 65be 6fa4 6f3e b140 a83e ce45 49be
00000240: e564 48be c6f6 4ebe 159c e6bd 8e63 65be
00000250: 92a5 ebbe f6e4 65be 76e6 a4be 281f 9bbe
00000260: 297e 783e ee2f f5bd acbc a13d b839 63be
00000270: 5214 063e e8da e73d b456 2cbd 791c 593e
00000280: 3fc2 b23d d5e4 d7bd 4e02 833e 15a7 ce3d
00000290: 729e 3bbe 8c7b 8ebe f44d b43d 76e1 9dbc
000002a0: 4abf 93be 9bdc 923d 6fab 95be 3c87 4d3e
000002b0: 5bb8 23be e1e6 38be 30c2 8e3e 38fc 94bc
000002c0: 4e3c 55be b5a5 71bc 87d2 123e f1e5 f93b
000002d0: 3979 6abe 76d2 173e 1916 b43d 2d57 c9bd
000002e0: d903 c1bd 71d8 97be 3cb0 1d3a f06f 9fbd
000002f0: a480 86be b2bc 513e 3610 613e 2d52 a23d
00000300: 7469 093e 93b0 f8bc 9d12 c6bd 8186 b33e
00000310: e2d1 74be 7620 cf3c 2f1d 36be ddf7 8d3c
00000320: 1b8b 623e 8278 87ba eebb 1cbe f476 3cbe
00000330: af2e 1abe 1311 d9bd 9dd3 fdbd 30c6 d63d
00000340: 09ed 4cbe d240 3cbd 3d8c 833d 90e0 583c
00000350: e77f f4bc 339c 293e f81d 09bf 62fd 733e
00000360: b935 27be 1d3c 19be e1f3 7ebd 2bd2 12bd
00000370: 2ad8 443e 84e5 a03d 46f5 283e 08aa 01bd
00000380: 2693 05bd 6e99 433e a276 c63d 0e71 59be
00000390: 3d3d 203e 64a7 d73d a52f 4a3d 42c6 cebd
000003a0: 4d08 b03c aca8 2abc d305 fcbd 7e72 94be
000003b0: f778 dcbd 2d89 32be c8a1 973d 6160 b1be
000003c0: 5454 d2bd f4f8 aa3d 47b1 2cbe 9915 2ebe
000003d0: 77e0 c9bd 1c19 b7bd 8f94 b53d a4dc a93d
000003e0: 7146 9a3e 1ed6 6bbd 5851 833d 22f7 dabd
000003f0: 924f 073d e586 34be cff7 b9ba 5dfc 08be
-0.17388032 0.044407345 -0.36093247 0.030927518 0.22544381 0.03537314 0.17587046 -0.172935
-0.13284399 0.040135074 0.13235287 0.1397322 -0.19728288 0.011466843 0.027550668 -0.16632599
0.24735898 -0.20812874 -0.11761499 0.1431543 0.022580666 0.14331588 -0.07039982 -0.22329235
-0.19137199 -0.30736277 0.0065031135 -0.0204833 -0.3319014 -0.15338233 -0.16156012 -0.2731874
-0.02215277 -0.16196941 0.18592167 0.2655794 -0.27492708 -0.024251213 -0.052386545 -0.16745773
-0.14199427 -0.3272228 0.30775785 0.0692956 -0.15477477 -0.025703184 0.05074537 -0.041658346
-0.3840823 -0.055393565 0.22348638 -0.01585534 0.09929426 0.0055246996 -0.27030146 -0.04525608
0.42611116 0.0269494 0.20504043 -0.04415681 -0.047432333 0.072998516 0.13128695 0.14906913
0.1353444 -0.1018079 0.17561263 -0.1626392 -0.02313587 0.20891504 -0.0020290152 -0.039877042
0.28108752 0.21532638 0.20043662 0.22664218 0.070778154 0.08995186 0.056333855 0.14748491
-0.12188543 -0.090132475 -0.28452957 -0.038723823 -0.11927315 0.38945684 -0.10522614 -0.008059546
-0.34088534 -0.010929634 0.11282041 0.11229179 -0.14596996 -0.047553863 -0.18856557 0.25771385
0.31539783 0.13133596 0.055670843 0.055468325 0.061454576 0.106312245 0.36260742 -0.36756778
0.06935811 0.21630047 -0.062490024 0.18646786 -0.25661382 0.0548265 -0.22181615 -0.07498279
0.034922697 0.18080229 -0.26593345 0.10581292 -0.22047463 -0.08396864 -0.11955372 -0.018749287
-0.23858252 -0.13704856 0.10302094 -0.1631814 -0.34751046 -0.15243247 -0.11237936 0.06698048
-0.30285466 0.019778535 -0.017013168 -0.0489373 0.021996856 0.085875474 0.02095716 0.00077371614
-0.39951053 -0.17840233 0.1286845 -0.34117267 -0.22365212 0.2340257 0.32861856 -0.19655535
-0.19569738 -0.20211324 -0.11260239 -0.22401258 -0.46024758 -0.22450623 -0.32207078 -0.30297208
0.24266876 -0.119720325 0.078973144 -0.22189987 0.13093689 0.1132105 -0.042074874 0.21202268
0.08728456 -0.10541693 0.25587696 0.10090462 -0.18322161 -0.27828634 0.08803931 -0.019272547
-0.2885688 0.071709834 -0.29232356 0.20071119 -0.15988295 -0.18056823 0.27882528 -0.018186674
-0.20823786 -0.01474898 0.14338122 0.007626288 -0.22897805 0.14826378 0.08793277 -0.098310806
-0.09424562 -0.2965732 0.00060153357 -0.07785022 -0.2627002 0.20482138 0.2197884 0.0792583
0.13419133 -0.030357635 -0.09671519 0.35063556 -0.23908189 0.025284033 -0.1778457 0.017330104
0.22123377 -0.0010335597 -0.15306064 -0.18404752 -0.15056871 -0.1059896 -0.12393878 0.1048702
-0.20012297 -0.045960255 0.06423233 0.013237134 -0.029846145 0.16563492 -0.53561354 0.23827127
-0.16329087 -0.14964338 -0.0622443 -0.035844963 0.19223085 0.07856277 0.16499814 -0.031656295
-0.032611035 0.19101498 0.09690596 -0.21234533 0.1564836 0.10529974 0.049361844 -0.100964084
0.021488333 -0.010416191 -0.123057984 -0.289936 -0.1076526 -0.17435141 0.07403904 -0.34643844
-0.102699906 0.08348265 -0.16864501 -0.17000426 -0.098572664 -0.08940336 0.08866226 0.08294037
0.30131868 -0.057577245 0.064119995 -0.10691668 0.03303487 -0.17629583 -0.0014188233 -0.13377519

fc_1.bias f4 [24]
00000000: bd68 e73e 9353 dd3d ddc4 2c3f a6ea f8be
00000010: 3e94 9d3e b9c3 a63e 7987 523e 5fc9 223f
00000020: 8d66 093c d4be 14bf 9941 f53e d8ed c83c
00000030: de2f abbe 3f7a 5e3d bbc2 5e3e 59a2 133f
00000040: e49a 75be c7f6 e33e d83d e3be e185 de3e
00000050: 67e6 8c3f 4af9 433f 9a6b 86be 7a9c 3d3e
0.45197096 0.10806956 0.6748789 -0.48616523 0.30777162 0.325712 0.20559491 0.6358852
0.008386266 -0.5810368 0.4790161 0.024527475 -0.33434957 0.0543158 0.21753971 0.576696
-0.23984867 0.44524214 -0.4438312 0.43461516 1.1007813 0.7655226 -0.26253968 0.18516722

fc_2.weight f4 [12, 24]
00000000: bb4c 443e 8285 f8bd 4677 133e 4895 cdbd
00000010: 9359 0cbe 1bc1 02be 5b28 a83e 6999 b03e
00000020: e5db 4abe a1f1 27be 68f6 4ebb 80d8 43be
00000030: 5331 893d 9f73 26be f015 6a3e f71f 643e
00000040: 94fc 88bd d282 9d3e a6c6 57be 81db 503e
00000050: f232 cb3e 27f0 c6bd 6896 abbd c838 3a3c
00000060: c8f5 dfbd d326 e43e 8323 5ebe 3c2d 82be
00000070: 0878 16bd 8dca cc3e 4419 5d3e 8b7f 7c3e
00000080: 9c63 b03a f3ea 32be d536 dc3d 5bdb cc3c
00000090: fd22 ac3c 49c9 683e d7d1 343e 919a 753d
000000a0: 38af a9bd 2ef5 803d 17e4 b3bd 9c29 593e
000000b0: d6a7 1c3e 6dd9 293e 4de8 30be 4fc5 9f3e
000000c0: eee1 5dbd 30a0 0abe c234 f2bd 3d29 e8bd
000000d0: 5e04 35be d12a 9cbd e3e0 c9bc 1df9 08bd
000000e0: de83 803d 4218 8d3e e8bd efbd fb54 c8bd
000000f0: 45de 78bd cb0b 55bd a2e0 473d cf73 90bd
00000100: 4202 0c3d 0ed8 883b c6c1 7a3e 42ee 8e3e
00000110: b669 573c a819 fc3d c6c9 37bc 21b1 5b3e
00000120: d837 a2bd f162 d4bc 5634 673d 5338 37bd
00000130: 605f 9fbe 0510 5c3e 7f07 1dbe 0939 553c
00000140: 64a7 1fbe a6ae 00bc 6820 243f e289 173e
00000150: e5d3 86be 4082 323d d64b 1bbe 6b67 873d
00000160: b17c adbd 505d b3be 3c73 083e 80c0 b03c
00000170: 0634 f53c d4ea 01bd ec6e ae3e 48c7 573d
00000180: a063 cabc 5e31 353e a1d9 393e 140b 483c
00000190: 075e fbbd 4a1e be3b 55df af3e b32b b73c
000001a0: e32a 5f3d a382 053e 04b7 613e 11e6 773e
000001b0: 3cd7 2abe 7b2b 783e cd11 433e 4da9 33be
000001c0: 7149 55be 68c9 0e3e 7fe7 dfbb da9b d7bd
000001d0: facf 2f3e 4067 313e 4819 46be af52 22bd
000001e0: 1b64 513d fb00 01bd c66d 9f3e 6832 4abe
000001f0: a2d5 dbbd 5586 f03d 4328 4c3e 43f1 cd3d
00000200: dc6a 243e 3ab9 36be 58a7 4c3e 9358 2c3e
00000210: 52ef 4dbe e74d 313e 7e85 2c3e f4da 6f3d
00000220: 54ae a5bd 16da cebc b013 d1bd 07be 6abc
00000230: bd6c 1abd 095c f5ba 9523 763d e878 8f3d
00000240: 4659 6c3e 35e0 4ebe fbe8 d73e 5dca e63d
00000250: fe32 113e 3132 93be 994c d13e bf27 8f3d
00000260: d671 233d d294 403e 989e 123f 3812 3cbe
00000270: 9146 6dbe 0f08 1b3e 5cbc 143e 20a4 e9bd
00000280: 9d81 0cbe 676b 383e ce97 93bd 251c f0bd
00000290: 8807 9ebd 54ca 2b3e 5db4 50bc d843 df3d
000002a0: 1303 543e d5e0 56be ac75 4e3e 70d0 a03d
000002b0: f130 6b3e de4b 753d b46b 293e a70c 443e
000002c0: 1158 22be 3fed 1f3e c592 9a3e 483e 75bd
000002d0: 57ca fb3d 0cb6 90bd 9f3a dcbd 5be9 c33d
000002e0: a8db 33bd 72a7 183e c364 6dbe bd8d f4bc
000002f0: a01d 8dbd 684a 883e 4fe5 3cbc bc6f 9c3e
00000300: aa78 853d a30e 1dbd db18 913e b655 403c
00000310: 8de8 7d3e 6873 85be 30e7 d03d 5775 563e
00000320: 4503 5f3e f129 2ebe 0883 cfbd 3670 00be
00000330: cf44 2cbe b11a b0be c69d c33d 64bf 35bd
00000340: 386f 733c 22fa 9ebe 7877 5d3e 440c a33d
00000350: b256 7c3e 4591 d63d c6c9 ddbd da48 afb9
00000360: f371 1ebe e872 c4bd 29af b93d 33d8 0abe
00000370: 27a7 82bd 0d0f 9ebc f579 25be 7da4 20be
00000380: d2f5 24bd c22b 5f3d a129 57be dec7 edbd
00000390: 9fc7 5d3e d54e 45bd 4c21 cfbb a53a c73d
000003a0: f8a9 6d3e 5f31 95bd 7c9f e93d a49c 1e3e
000003b0: 2e6a 77bd eb31 d4bd cab4 b3bd 8869 e33d
000003c0: bd53 bcbd 3802 b13c 0634 35be 5c88 20bc
000003d0: 773d 14be bbaf 2f3d b832 1fbe 498b 843e
000003e0: 7f9f 2dbd 9a5a 873c 8f03 72be 7859 5a3d
000003f0: 35c8 493d dde0 bebd 50a4 423c 4f38 88be
0.19169895 -0.121348396 0.14400968 -0.10038239 -0.13706045 -0.12768976 0.3284329 0.34492043
-0.19810446 -0.16400768 -0.0031579975 -0.19125557 0.06698861 -0.16255043 0.22859931 0.22277819
-0.066888005 0.3076387 -0.21071872 0.20396234 0.39687306 -0.09713774 -0.08378297 0.011366077
-0.10935551 0.4456087 -0.21693234 -0.25425136 -0.036735564 0.39998284 0.2159167 0.24658029
0.001345742 -0.17472439 0.10752646 0.02500694 0.021012777 0.22733034 0.17658173 0.05996186
-0.082853734 0.06296764 -0.08783739 0.21207279 0.152984 0.16586848 -0.17276116 0.31205222
-0.05417054 -0.13537669 -0.11826469 -0.113359906 -0.17677447 -0.07625354 -0.024643367 -0.033440698
0.06275152 0.2755757 -0.117061436 -0.09781834 -0.060758848 -0.0520132 0.04879821 -0.07053339
0.03418184 0.0041761464 0.24487981 0.2791615 0.013147762 0.12309581 -0.01121754 0.21454288
-0.079208076 -0.025926085 0.056446396 -0.04473145 -0.31127453 0.21490486 -0.15334891 0.0130140865
-0.15591198 -0.007854139 0.6411195 0.14798692 -0.26333538 0.043581247 -0.15165648 0.06611522
-0.084710486 -0.3503213 0.13325208 0.021576166 0.029932033 -0.03171809 0.34069002 0.052680284
-0.024705708 0.17694613 0.18149425 0.0122096725 -0.12273794 0.0058019506 0.34350076 0.022359705
0.05448426 0.13038115 0.22042471 0.24208857 -0.16683668 0.24235336 0.19049759 -0.17545052
-0.20828797 0.13944018 -0.0068330164 -0.10527773 0.1716918 0.17324543 -0.19345582 -0.039629634
0.05112086 -0.031495076 0.31138438 -0.19745791 -0.107341066 0.11744372 0.19937234 0.10055783
0.16056389 -0.17844096 0.19985712 0.16830663 -0.20110825 0.17314874 0.16847798 0.05855842
-0.08089891 -0.025250476 -0.10208833 -0.014327533 -0.037701357 -0.0018719445 0.060092527 0.07005483
0.2308093 -0.20202716 0.42169937 0.112690665 0.14179608 -0.2874923 0.40878752 0.06990003
0.039903484 0.1880677 0.57273245 -0.18366325 -0.2317145 0.15139793 0.14524978 -0.114082575
-0.13721319 0.1800972 -0.07206689 -0.11724118 -0.0771628 0.16776401 -0.012738314 0.10901612
0.20704298 -0.20984204 0.20162076 0.07852256 0.22967888 0.059886806 0.16544992 0.19145451
-0.15853907 0.15617846 0.301901 -0.05987385 0.12294453 -0.07065973 -0.107533686 0.095659934
-0.043910652 0.14907625 -0.23182969 -0.029852742 -0.06890416 0.26619267 -0.011529281 0.30553997
0.065171555 -0.038344037 0.28339276 0.011739185 0.24795742 -0.2606461 0.102003455 0.20943199
0.21778591 -0.17008187 -0.10132414 -0.12542805 -0.16823123 -0.34395364 0.09551577 -0.044371977
0.01485806 -0.3105021 0.21627605 0.07961324 0.24642447 0.10476927 -0.10829501 -0.0003343288
-0.15473156 -0.09592229 0.09066612 -0.13559036 -0.06379538 -0.019294286 -0.16159804 -0.15687747
-0.040273495 0.05448509 -0.21011974 -0.11610387 0.2165818 -0.048170883 -0.006321108 0.097279824
0.23209369 -0.072848074 0.11407372 0.15489441 -0.060403995 -0.103610836 -0.08774717 0.11104113
-0.09195659 0.021607503 -0.17695627 -0.009798136 -0.14476572 0.0428922 -0.15546691 0.25887516
-0.042388435 0.016522694 -0.2363417 0.05330798 0.049263198 -0.09320233 0.011879995 -0.2660546

fc_2.bias f4 [12]
00000000: 0f85 833f 9a4b 893e 8c7a 8bbe f602 233f
00000010: 8ff8 06be 924c bb3e 9037 4cbd 5f02 d93e
00000020: e889 253f c024 07bf eb7a 113e b40c 8c3e
1.0274981 0.26815492 -0.27241933 0.63676393 -0.13180755 0.36581856 -0.049857676 0.42384622
0.64663553 -0.5279045 0.14207046 0.27353442

fc_3.weight f4 [5, 12]
00000000: 8a86 49be 0cdb 3a3e dda1 4c3e ae5e 423d
00000010: b230 a9be cdec 91be 6b7b bdbe b875 283d
00000020: 2c3e 2cbe 4b68 dcbc 0ad7 a83e 84aa 153d
00000030: a83e 013d 4df8 333e 07bb c33d bf7a 39bf
00000040: 46dc 473e 6b49 843c 3f3e 79bd 4a49 a7be
00000050: f341 453e ccfb c83c 64e8 093e 5d74 fdbe
00000060: d4a3 04be 318e e6be 1352 65bd 3cfe 653d
00000070: 175b 59be 1b8d 9abe 19ed 933e a61b 0e3e
00000080: 588b 893e 99f6 403e 65dd 99be 2b5a 03be
00000090: 1ec5 b5be 4aa5 d93d f6aa 72be f5a5 ae3e
000000a0: 6691 553e 5164 2c3e 5806 ac3d 8d94 54bd
000000b0: 09f8 51bf e6c7 b9be beee c7be 7d8e 43be
000000c0: 7fd0 a83e 0d2c 0e3e e33d a2be eb2c 27bd
000000d0: 083d 0dbe 53bc c23c 442d a2bd d0f8 303e
000000e0: e9be 9fbd 0fa2 25bf 5fe0 a5be f9e7 b1bd
-0.19680229 0.18247622 0.19983621 0.047453575 -0.33044964 -0.28500977 -0.37008223 0.04112789
-0.16820592 -0.0269052 0.32976562 0.03653957 0.031553894 0.17575188 0.09557157 -0.7245292
0.19517621 0.01614829 -0.060850378 -0.32673103 0.19263439 0.024534129 0.13467556 -0.4950284
-0.1295312 -0.45030358 -0.055986475 0.05615066 -0.21226154 -0.3018578 0.2889183 0.13877735
0.26864123 0.1884407 -0.30051723 -0.12827365 -0.3550195 0.106272295 -0.23698029 0.3411099
0.20856246 0.16835143 0.083996475 -0.05189948 -0.82019097 -0.36285323 -0.39049333 -0.19097324
0.3297157 0.13883992 -0.3168784 -0.04081432 -0.13792813 0.02377144 -0.0791879 0.17282414
-0.07800085 -0.64700407 -0.32397744 -0.086868234

fc_3.bias f4 [5]
00000000: 34bf 92be 5fac 05bf 2587 8abd 0f27 0dbf
00000010: f37a 3a3f
-0.286615 -0.5221614 -0.06764058 -0.55137724 0.72843856
