MA_VIN_4.pth (torch_old, 24024 bytes, 11 tensors)

w f4 [20, 1, 3, 3]
0.18792772 0.4378631 0.3229271 -0.19969472 0.0521395 0.090589315 0.042247694 -0.055002958
0.019342933 0.37159288 0.09496964 0.028925352 0.53116065 -0.00080513116 -0.106738776 0.1644392
-0.20788601 0.07362419 -0.14952464 -0.028730327 -0.13443984 0.09769478 0.060507197 -0.27895454
0.061042186 -0.043248054 -0.11057286 -0.029046714 -0.0765249 0.12801656 0.0931847 -0.121186346
0.012617309 -0.048869714 -0.20720842 -0.016376555 -0.069486655 0.048501153 0.07396855 -0.043065988
0.07587346 -0.20009138 0.16168235 0.7050123 0.16930912 -0.03732705 -0.09011169 -0.09171134
-0.0054227584 0.064965114 -0.060069796 -0.08491853 0.033866175 -0.07162144 0.039201308 0.024308708
-0.06398039 0.005667049 0.007416458 -0.1462805 -0.027019488 -0.10002931 -0.030099865 -0.08420216
-0.15245697 0.0012068035 0.017235933 -0.07597526 -0.16949739 -0.040377006 -0.13516076 -0.044178247
-0.1413636 -0.12415897 -0.034249175 0.20523205 0.0562313 0.21814509 0.03078722 -0.21588008
-0.041025776 0.0032265063 -0.0050444566 -0.09015364 0.013558732 0.019882848 0.013738955 -0.0036141754
-0.08514609 -0.027707722 0.054197587 -0.029865865 -0.1255631 0.18143836 0.07157621 -0.026563471
0.024488833 -0.07322201 -0.084596634 -0.011645094 0.15962428 0.015126436 -0.05914221 0.039507452
-0.0867278 -0.08321613 -0.0037603842 -0.021722406 0.012525414 0.18011752 -0.030287845 -0.2561849
0.08046858 0.058474164 -0.11036718 0.16077156 -0.012369806 0.09172936 0.15254484 0.10252585
0.0323447 -0.0051505887 -0.03539395 -0.04296567 -0.19077407 -0.025394162 -0.035576615 -0.1511729
0.00415193 -0.14932518 0.0004008181 0.027139146 -0.01812624 0.06446654 0.07779856 -0.14675021
-0.066149585 -0.21902707 -0.12492493 0.12970443 -0.09560816 -0.1500124 0.40390363 -0.20319618
0.0022354699 -0.26657796 -0.047662497 -0.0981779 -0.21384215 0.008398157 0.035692446 0.10427976
0.10754231 -0.055452462 0.03834692 -0.015956571 -0.0835418 -0.043205176 -0.21261866 -0.14375547
-0.11897414 -0.14568222 0.0745332 -0.15275843 0.117012285 0.025292132 0.13825518 0.686648
0.011250227 -0.20276459 0.19040589 -0.02199953 0.1121378 -0.018633414 -0.22894399 0.0006415122
-0.05973883 -0.08140762 -0.16321133 -0.052407365
00000000: 2070 403e 982f e03e b356 a53e c67c 4cbe
00000010: 3a90 553d e486 b93d eb0b 2d3d c84a 61bd
00000020: 1275 9e3c 6c41 be3e 717f c23d dcf4 ec3c
00000030: 25fa 073f 700f 53ba dc99 dabd c062 283e
00000040: 12e0 54be 48c8 963d fd1c 19be dd5b ebbc
00000050: 99aa 09be 3314 c83d 65d6 773d 21d3 8ebe
00000060: 5f07 7a3d df24 31bd 0674 e2bd 60f3 edbc
00000070: 16b9 9cbd c616 033e 9fd7 be3d 8c30 f8bd
00000080: d4b8 4e3c 9c2b 48bd 722e 54be 2028 86bc
00000090: 054f 8ebd 25a9 463d d37c 973d f665 30bd
000000a0: 8b63 9b3d c1e4 4cbe 0f90 253e b07b 343f
000000b0: 5f5f 2d3e 40e4 18bd 7a8c b8bd 28d3 bbbd
000000c0: 65b1 b1bb 6e0c 853d bf0b 76bd c4e9 adbd
000000d0: 42b7 0a3d 43ae 92bd 8d91 203d 0e23 c73c
000000e0: 2708 83bd a7b2 b93b c205 f33b 8eca 15be
000000f0: f957 ddbc 2bdc ccbd fe93 f6bc 2f72 acbd
00000100: ae1d 1cbe 9b2d 9e3a 5f32 8d3c eb98 9bbd
00000110: b990 2dbe 5c62 25bd 9567 0abe 40f4 34bd
00000120: 9fc1 10be 0f47 febd dd48 0cbd 5a28 523e
00000130: cb52 663d 6d61 5f3e 7b35 fc3c ab0f 5dbe
00000140: a50a 28bd cb73 533b f84b a5bb 79a2 b8bd
00000150: 7225 5e3c 5be1 a23c 5b19 613c cddb 6cbb
00000160: 1361 aebd 4efb e2bc 4afe 5d3d 42a9 f4bc
00000170: 9d93 00be faca 393e 8c96 923d a39b d9bc
00000180: ce9c c83c 6cf5 95bd 0041 adbd 10cb 3ebc
00000190: 8c74 233e dfd4 773c 1a3f 72bd 91d2 213d
000001a0: 589e b1bd 386d aabd c770 76bb 30f3 b1bc
000001b0: 6537 4d3c ba70 383e 371e f8bc ab2a 83be
000001c0: b6cc a43d 9b82 6f3d 3008 e2bd 4da1 243e
000001d0: baaa 4abc 9adc bb3d b734 1c3e 13f9 d13d
000001e0: e07b 043d 45c6 a8bb 3ff9 10bd c5fc 2fbd
000001f0: 475a 43be 6b07 d0bc c9b8 11bd 12cd 1abe
00000200: ea0c 883b b3e8 18be e524 d239 ea52 de3c
00000210: 7b7d 94bc 0907 843d da54 9f3d b045 16be
00000220: 6f79 87bd a248 60be a4d8 ffbd 3dd1 043e
00000230: 36ce c3bd da9c 19be 75cc ce3e a912 50be
00000240: f680 123b e87c 88be c039 43bd 7f11 c9bd
00000250: 70f9 5abe 6c98 093c 3e32 123d a090 d53d
00000260: 253f dc3d 1f22 63bd a911 1d3d 5bb7 82bc
00000270: f717 abbd e9f7 30bd b5b8 59be a234 13be
00000280: b7a8 f3bd b82d 15be dda4 983d b56c 1cbe
00000290: 23a4 ef3d 7231 cf3c c492 0d3e 2ac8 2f3f
000002a0: df52 383c 85a1 4fbe c3f9 423e 5c38 b4bc
000002b0: 81a8 e53d 1aa5 98bc 4b70 6abe 282b 283a
000002c0: b4b0 74bd 0ab9 a6bd df20 27be 1ba9 56bd

h.weight f4 [150, 3, 3, 3]
0.17520514 0.08342484 -0.101077326 -0.17963168 0.31659916 -0.08448156 -0.0114576835 -0.15153772
-0.06383855 -0.105145715 0.23529781 -0.084365554 -0.005284664 0.14543161 -0.0073240404 -0.024826346
-0.005723622 -0.12425532 -0.0030175715 -0.07959312 0.16376786 -0.036090445 -0.09591377 -0.18517773
0.06241432 -0.219146 0.13774009 0.18902875 0.0483929 0.10233859 0.052565735 -0.17278884
0.092486344 0.03788098 0.061639305 -0.13300364 -0.053855117 -0.1551175 0.03277451 -0.10744648
-0.23811649 0.05981918 0.016983053 -0.26463765 -0.20092806 -0.13205695 0.07221722 0.03544041
0.24923106 0.20510499 0.2215262 -0.08033843 0.24093316 -0.047047548 0.058333524 -0.2372942
0.1316563 0.13062951 0.10417306 0.09135206 -0.1755398 0.12750278 -0.07591337 0.0006678311
0.005522656 -0.0021774988 0.1628399 0.30846292 0.12693891 0.06288849 0.2509883 -0.033378545
-0.22476721 0.11510093 -0.20693831 -0.2183034 -0.26134732 0.030165525 -0.11778089 -0.1905817
0.03481108 0.13344443 0.020046655 -0.18439107 0.094918616 0.10955375 -0.10065966 -0.17613909
0.0017454402 -0.17543358 -0.01146212 0.030459307 -0.11465495 0.30575404 0.33186528 0.17988195
-0.044693936 0.13933884 -0.07213535 -0.0832793 -0.06293793 0.047914576 -0.037660673 -0.4247447
-0.052873615 -0.061841644 -0.2123892 0.031385355 0.080450505 -0.12530844 0.11231129 -0.1259123
-0.23228477 0.05642645 -0.03566171 -0.09576606 0.0038155667 0.14252932 -0.05397111 0.12299385
-0.030187475 -0.16130711 0.017474024 -0.02849811 -0.033887867 -0.0002926218 0.21396714 0.13414831
0.07860759 0.11083235 0.14927876 0.07844928 0.23583524 -0.060356483 0.130301 -0.05976358
0.09474976 -0.12198023 -0.10832246 -0.2981237 0.13391985 -0.013500067 -0.06541955 0.104444906
0.020809086 -0.15678176 -0.18184881 -0.061633155 -0.13839932 -0.013348871 -0.13928396 -0.028592372
-0.11441004 0.19465719 0.18886615 0.048563153 -0.0065355115 0.20148572 0.22833042 0.21648608
0.086919405 0.05190548 0.21908464 -0.086673975 0.11419973 0.028995726 -0.29506025 -0.07466406
-0.069459125 -0.062526725 0.18178031 0.11473578 -0.027808908 0.1667194 -0.28652635 -0.03930362
-0.18938698 -0.04485451 -0.18617395 -0.029963588 -0.0433086 0.03977677 0.17904271 0.00546877
0.12677322 0.24813502 -0.0033647413 0.03224305 0.06906098 0.1714173 -0.049909696 0.08647945
-0.12357418 -0.11179727 0.07578064 0.15183878 0.0016348272 -0.08090271 0.2504517 -0.10600691
-0.054237578 -0.3482471 -0.027633267 -0.28349796 0.03347501 0.04756037 -0.07313644 -0.11350928
0.011163836 0.07027276 0.08153391 0.24014635 0.08826344 0.015829714 0.018423984 -0.0446
0.03541812 -0.09509814 -0.110918425 -0.002101828 -0.26669544 0.03567761 -0.10443119 0.030808596
-0.11366064 -0.050933577 -0.2558246 -0.18855122 -0.14639355 -0.06544935 0.011012224 -0.02685051
-0.08052394 0.037292153 0.12783128 0.04514633 -0.06627884 0.2650143 0.43955728 -0.057367682
0.16588053 -0.07221213 -0.009833573 -0.06586342 -0.071253665 -0.07941081 0.027436426 -0.07498089
0.12000815 0.059815206 0.13236588 -0.021849621 -0.028394198 0.19681159 0.06618222 0.080297135
00000000: fa68 333e a4da aa3d a101 cfbd 5ef1 37be
00000010: 4919 a23e ab04 adbd 02b9 3bbc b42c 1bbe
00000020: c9bd 82bd a356 d7bd e9f1 703e d9c7 acbd
00000030: fa2a adbb 06ec 143e 81fe efbb 9f60 cbbc
00000040: 398d bbbb 9379 febd 73c2 45bb b801 a3bd
00000050: c3b2 273e 93d3 13bd 706e c4bd 3b9f 3dbe
00000060: 28a6 7f3d cf67 60be bd0b 0d3e c190 413e
00000070: a237 463d e596 d13d 2b4f 573d 8fef 30be
00000080: 7b69 bd3d 1629 1b3d 7f79 7c3d 1b32 08be
00000090: 2f97 5cbd 1fd7 1ebe 913e 063d e60c dcbd
000000a0: cfd4 73be f504 753d 0b20 8b3c 967e 87be
000000b0: 16c0 4dbe f039 07be 9fe6 933d f729 113d
000000c0: 6d36 7f3e 0b07 523e c4d7 623e 7a88 a4bd
000000d0: 2fb7 763e eeb4 40bd 22ef 6e3d 40fd 72be
000000e0: e9d0 063e bec3 053e af58 d53d ca16 bb3d
000000f0: b5c0 33be 1790 023e 7878 9bbd 6311 2f3a
00000100: 65f7 b43b 5eb4 0ebb 81bf 263e daee 9d3e
00000110: 46fc 013e aecb 803d 8a81 803e f1b7 08bd
00000120: 6029 66be 09ba eb3d a3e7 53be ed8a 5fbe
00000130: 51cf 85be b11d f73c 1b37 f1bd d927 43be
00000140: 1096 0e3d a8a5 083e e238 a43c 03d1 3cbe
00000150: b164 c23d b75d e03d a726 cebd ce5d 34be
00000160: 41c7 e43a dca4 33be 9ecb 3bbc cc85 f93c
00000170: 37d0 eabd cb8b 9c3e 3fea a93e f932 383e
00000180: fd10 37bd d7ae 0e3e b3bb 93bd 568e aabd
00000190: 9ae5 80bd 1342 443d 1442 1abd 2378 d9be
000001a0: 0192 58bd aa4d 7dbd 8e7c 59be ee8d 003d
000001b0: 3cc3 a43d db50 00be 7603 e63d 27ef 00be
000001c0: 0fdc 6dbe 6c1f 673d 0312 12bd ff20 c4bd
000001d0: 960e 7a3b 35f3 113e d010 5dbd 33e4 fb3d
000001e0: b94b f7bc b12d 25be af25 8f3c de74 e9bc
000001f0: 01ce 0abd 086b 99b9 341a 5b3e 2d5e 093e
00000200: 04fd a03d 12fc e23d 88dc 183e 04aa a03d
00000210: cb7e 713e 5c38 77bd a06d 053e a8ca 74bd
00000220: 2a0c c23d c5d0 f9bd 2ad8 ddbd aba3 98be
00000230: 4922 093e 632f 5dbc affa 85bd 36e7 d53d
00000240: d177 aa3c 668b 20be 9336 3abe 0c73 7cbd
00000250: 8db8 0dbe 39b5 5abc 74a0 0ebe 8d3a eabc
00000260: d04f eabd 3754 473e 2166 413e 28ea 463d
00000270: d827 d6bb 4652 4e3e 73cf 693e 87ae 5d3e
00000280: cd02 b23d d79a 543d b957 603e 2082 b1bd
00000290: 8ce1 e93d 7288 ed3c 2312 97be 78e9 98bd
000002a0: 9640 8ebd 030e 80bd 9e24 3a3e 98fa ea3d
000002b0: 82cf e3bc 7eb8 2a3e 95b3 92be d5fc 20bd
000002c0: a9ee 41be 5db9 37bd 62a4 3ebe 3376 f5bc
000002d0: 5c64 31bd f7ec 223d f956 373e 5e33 b33b
000002e0: d7d0 013e 1b17 7e3e fe82 5cbb 4a11 043d
000002f0: d86f 8d3d 0488 2f3e 1c6e 4cbd 231c b13d
00000300: 7614 fdbd f8f5 e4bd e132 9b3d a07b 1b3e
00000310: b347 d63a 52b0 a5bd 353b 803e 271a d9bd
00000320: 3928 5ebd 724d b2be 295f e2bc a526 91be
00000330: 181d 093d aace 423d 8fc8 95bd 8e77 e8bd
00000340: 86e8 363c 2aeb 8f3d 40fb a63d ede8 753e
00000350: 76c3 b43d 51ad 813c e5ed 963c 7dae 36bd
00000360: 9712 113d d0c2 c2bd 3329 e3bd d3be 09bb
00000370: 4e8c 88be b022 123d 05e0 d5bd 4f62 fc3c
00000380: e9c6 e8bd ba9f 50bd 71fb 82be 9213 41be
00000390: 31e8 15be 4f0a 86bd 9d6c 343c 9af5 dbbc
000003a0: bce9 a4bd a8bf 183d 34e6 023e 5ceb 383d
000003b0: 33bd 87bd f4af 873e a70d e13e 60fa 6abd
000003c0: 96dc 293e f4e3 93bd ff1c 21bc 67e3 86bd
000003d0: 71ed 91bd 22a2 a2bd 5bc2 e03c 958f 99bd
000003e0: d5c6 f53d ca00 753d ec8a 073e fafd b2bc
000003f0: f39a e8bc fa88 493e 8b8a 873d d372 a43d

h.bias f4 [150]
-0.1798591 0.050580975 -0.0059892726 -0.16389637 0.12806387 0.051196903 0.009481562 -0.012067299
0.25182498 -0.071774945 -0.029956397 -0.046528794 -0.009347715 -0.038252305 0.08968032 -0.047433477
-0.0037953875 -0.10388616 -0.052565917 0.07114198 0.14064954 -0.012135115 0.07780334 0.20228694
-0.15905346 -0.21604797 -0.01663742 0.0062870774 -0.02476289 0.17957184 0.11802411 -0.012723012
-0.088992074 0.16440922 -0.040041335 0.10514076 0.21674107 0.04652605 -0.19627397 -0.1363038
-0.014742548 0.00772956 -0.15639718 -0.18397695 -0.22840783 -0.16064623 -0.06578714 -0.005072757
0.11196428 0.06787359 0.17965403 0.008498384 0.048444316 0.045257945 0.16295342 -0.055312164
0.0093825795 0.18818608 0.11084553 0.0380244 -0.15756692 -0.12631391 -0.0664573 0.21167432
0.10542654 0.028943041 0.03656615 0.0034264748 -0.022240484 0.100401804 -0.05950197 0.053804938
-0.056769807 0.07056333 0.0042315414 0.22725701 -0.033503175 0.06517528 0.04795984 0.09940361
0.055673618 -0.12737949 0.20879735 -0.17613794 0.12918884 -0.21973993 -0.14246066 -0.011137272
0.030137997 0.121600755 0.028637959 -0.17543702 0.0769834 -0.15577817 -0.15838361 0.21497218
0.14202279 0.16165891 -0.15592225 -0.12046416 0.17126834 0.036203936 0.1253569 -0.03861464
0.22743717 0.17917003 -0.18986893 -0.067490056 0.11206664 0.059927106 -0.04534757 0.09670705
-0.037978 0.16567057 0.16066754 0.0078679165 0.13908702 0.095571965 -0.050069865 0.15732482
-0.19393083 0.036988053 0.013206341 0.046506345 -0.22036366 0.036579493 0.023160007 0.16715634
0.0917966 0.0064974534 -0.021081556 0.0468664 -0.1873202 -0.09976499 0.18490423 0.1781174
0.02446156 0.019678323 0.1713765 -0.1898623 0.16503315 0.072213165 -0.069054335 0.03772319
0.19572242 0.09604639 0.1524911 -0.22602524 0.11179948 -0.09679524
00000000: fc2c 38be ff2d 4f3d a941 c4bb 73d4 27be
00000010: 2d23 033e d8b3 513d 8e58 1b3c ecb5 45bc
00000020: 34ef 803e befe 92bd 1e67 f5bc fa94 3ebd
00000030: 2927 19bc 73ae 1cbd 51aa b73d 9b49 42bd
00000040: 09bc 78bb 44c2 d4bd 5c4f 57bd e3b2 913d
00000050: 6f06 103e 5dd2 46bc 5c57 9f3d 4f24 4f3e
00000060: e9de 22be ae3b 5dbe 334b 88bc d403 ce3b
00000070: 8bdb cabc aee1 373e a0b6 f13d 2e74 50bc
00000080: 7a41 b6bd e45a 283e 6202 24bd 0a54 d73d
00000090: 5ff1 5d3e 1992 3e3d 0bfc 48be 3993 0bbe
000000a0: ba8a 71bc 4048 fd3b 9526 20be 7464 3cbe
000000b0: bee3 69be 7280 24be 68bb 86bd 5f39 a6bb
000000c0: 874d e53d 4f01 8b3d 3af7 373e ce3c 0b3c
000000d0: 8c6d 463d 6560 393d 43dd 263e 028f 62bd
000000e0: 64b9 193c dab3 403e fb02 e33d 79bf 1b3d
000000f0: 3959 21be 6f58 01be c41a 88bd 27c1 583e
00000100: dfe9 d73d f519 ed3c 63c6 153d b58e 603b
00000110: ad31 b6bc 769f cd3d 56b8 73bd 9162 5c3d
00000120: 7587 68bd 8283 903d bea8 8a3b 10b6 683e
00000130: a03a 09bd 9e7a 853d 8a71 443d 1f94 cb3d
00000140: 050a 643d c56f 02be f9ce 553e 815d 34be
00000150: 144a 043e 8103 61be 35e1 11be 1b79 36bc
00000160: f6e3 f63c d109 f93d 279a ea3c c3a5 33be
00000170: 79a9 9d3d 5084 1fbe 502f 22be ab21 5c3e
00000180: 6c6e 113e ea89 253e 15aa 1fbe eab5 f6bd
00000190: f860 2f3e 944a 143d 8f5d 003e 622a 1ebd
000001a0: 4ae5 683e 5978 373e 006d 42be 3a38 8abd
000001b0: 3283 e53d 2076 753d 60be 39bd 590e c63d
000001c0: d28e 1bbd 8ca5 293e 0886 243e 6fe8 003c
000001d0: d46c 0e3e 3cbb c33d 0f16 4dbd c219 213e
000001e0: ce95 46be c980 173d 695f 583c 707d 3e3d
000001f0: 03a7 61be 61d4 153d 0eba bd3c 082b 2b3e
00000200: dbff bb3d 97e8 d43b 3ab3 acbc fbf6 3f3d
00000210: ded0 3fbe 9651 ccbd 8957 3d3e 6864 363e
00000220: 9c63 c83c 6f34 a13c 527d 2f3e 436b 42be
00000230: 73fe 283e 7fe4 933d 5c6c 8dbd a283 1a3d
00000240: 756b 483e f8b3 c43d a026 1c3e 2973 67be
00000250: 20f7 e43d 953c c6bd

r.weight f4 [1, 150, 1, 1]
0.17023763 -0.10982518 0.024267955 0.14478795 -0.15098527 -0.19182181 -0.062949106 0.0076404945
-0.24241596 -0.0043032058 0.14137399 -0.2980198 0.12564056 0.17741525 -0.12185856 0.11073189
0.28490934 0.044568967 -0.07202092 -0.23956098 -0.1676172 -0.09565178 0.050422687 -0.37878612
0.23596078 0.30482158 0.027766634 -0.02995043 -0.11786369 -0.25325468 -0.023526274 0.062317975
-0.13721311 -0.23817046 -0.21318518 -0.31600127 -0.23688897 -0.105811 0.10139534 0.102634
0.33268815 0.088018596 0.16667011 0.13881628 0.1887589 0.11009831 0.20038596 -0.1665377
0.11429066 -0.056967717 -0.13044694 0.035613578 -0.24872255 -0.21721616 -0.32720536 -0.13877794
-0.22882436 -0.28714576 0.034862585 0.013066368 0.3747897 -0.23668222 -0.03648134 -0.102590494
-0.3570002 -0.20016262 0.20900822 -0.03986766 0.16960205 -0.42032602 0.17837922 0.20058826
0.16418241 -0.14762242 0.06789814 -0.23524486 0.047810182 -0.20495145 -0.15011305 -0.07595657
-0.15053111 0.0141818 -0.23762883 0.32463628 -0.15778302 0.552476 0.09031575 0.15476765
-0.3237296 -0.28717107 0.14322196 0.38152125 -0.18234196 0.0067413896 0.17346612 -0.22240596
-0.13303046 -0.3384619 0.09741782 0.30876246 -0.14892966 -0.14495128 -0.121983685 0.0008799
-0.034774166 -0.14210778 0.057010647 0.015676998 0.0013333212 -0.18969388 -0.1496355 -0.10149427
-0.1594154 -0.13539827 -0.18615508 -0.1600868 -0.04689568 0.010003943 0.37999454 -0.22123559
0.36152738 0.08356233 0.13832727 -0.07829292 0.26903108 0.11550908 -0.06127131 -0.50754577
0.046192147 -0.088887185 -0.2665684 -0.19758162 0.17125902 -0.18622217 -0.367984 -0.09476425
0.13056406 0.019511053 -0.051823422 0.0582824 -0.37370595 -0.0013751901 -0.018989366 -0.3481963
-0.12406762 0.06633989 -0.080845766 0.2239918 -0.12955335 -0.13251613
00000000: c652 2e3e 06ec e0bd 97cd c63c 4b43 143e
00000010: e29b 1abe f06c 44be 76eb 80bd 1d5d fa3b
00000020: e43b 78be e801 8dbb 58c4 103e 0d96 98be
00000030: eba7 003e 58ac 353e fb90 f9bd 67c7 e23d
00000040: a3df 913e f38d 363d b47f 93bd 794f 75be
00000050: d8a3 2bbe 15e5 c3bd 0588 4e3d 41f0 c1be
00000060: b49f 713e 9311 9c3e da76 e33c 9b5a f5bc
00000070: 8562 f1bd 99aa 81be 2cba c0bc 2241 7f3d
00000080: 9881 0cbe f5e2 73be 374d 5abe ebca a1be
00000090: 0693 72be 70b3 d8bd 5ca8 cf3d c631 d23d
000000a0: 1a56 aa3e 1843 b43d 92ab 2a3e db25 0e3e
000000b0: 034a 413e 397b e13d fa31 4d3e dc88 2abe
000000c0: 3911 ea3d fb56 69bd e293 05be 8bdf 113d
000000d0: 20b1 7ebe ea6d 5ebe 7687 a7be ce1b 0ebe
000000e0: ef50 6abe c504 93be 12cc 0e3d 5214 563c
000000f0: 70e4 bf3e d35c 72be 756d 15bd f71a d2bd
00000100: bbc8 b6be 6ef7 4cbe 4006 563e 454c 23bd
00000110: 29ac 2d3e f934 d7be 0ba9 363e 0267 4d3e
00000120: 6f1f 283e 552a 17be 2e0e 8b3d 07e4 70be
00000130: 9cd4 433d cbde 51be 3cb7 19be 1e8f 9bbd
00000140: d424 1abe c85a 683c f954 73be ba36 a63e
00000150: df91 21be 116f 0d3f 77f7 b83d 697b 1e3e
00000160: e3bf a5be 1608 93be c7a8 123e c156 c33e
00000170: dab7 3abe e0e6 dc3b 1aa1 313e 63be 63be
00000180: 2339 08be e14a adbe fe82 c73d 1d16 9e3e
00000190: 0481 18be 1c6e 14be 95d2 f9bd 17a9 663a
000001a0: 5b6f 0ebd b484 11be ff83 693d 0c6d 803c
000001b0: d6c2 ae3a 1d3f 42be 0c3a 19be 3adc cfbd
000001c0: ca3d 23be d8a5 0abe 709f 3ebe cbed 23be
000001d0: af15 40bd 94e7 233c a58e c23e 958b 62be
000001e0: 1e1a b93e ba22 ab3d aaa5 0d3e 0a58 a0bd
000001f0: 71be 893e 0690 ec3d a0f7 7abd 85ee 01bf
00000200: fa33 3d3d 7c0a b6bd a77b 88be d652 4abe
00000210: 865e 2f3e 06b1 3ebe 6668 bcbe c213 c2bd
00000220: 96b2 053e a5d5 9f3c cc44 54bd 87b9 6e3d
00000230: 6356 bfbe b93f b4ba 968f 9bbc c946 b2be
00000240: 2a17 febd 35dd 873d 7792 a5bd 1b5e 653e
00000250: a2a9 04be 4fb2 07be

q.weight f4 [20, 1, 3, 3]
0.09055234 0.43807402 0.07642831 0.10820858 -0.38445938 0.10725223 0.06620987 0.022301028
0.08446544 0.092784025 0.26382732 0.16547267 0.4161774 -0.3246899 -0.053075626 0.16866615
-0.01096278 0.1561997 -0.2741663 0.06658659 -0.1702534 0.3383528 -0.34448254 0.037352744
0.20836335 -0.3042534 -0.16548559 0.45684987 0.1622972 0.11693207 0.62490714 1.0109721
0.6856505 0.47763893 -0.06419756 0.12631655 0.09890624 0.057659734 0.10001896 0.105964206
-0.11400703 -0.044984046 -0.06328893 0.36680818 0.07286588 0.18504797 -0.24428767 0.14982943
-0.026941167 -0.22540192 0.39258412 0.29117823 0.015377945 -0.24427125 -0.12850507 -0.07376595
-0.25244582 0.46051636 -0.55085784 0.3647102 -0.0069522965 0.49030092 0.08915262 0.016713139
-0.28164715 -0.015308191 0.49025488 0.048881408 -0.1131935 0.10523321 -0.32509202 0.13451132
0.09852585 -0.007877398 0.0058749155 0.29618078 -0.3178967 0.25249007 0.019355396 -0.21971396
-0.039879903 0.11199219 0.38332188 0.12694679 0.10495561 -0.04594584 0.014932461 0.13521
-0.28758627 0.23011574 0.20262942 -0.01621538 -0.05120813 0.2594781 0.2989902 -0.16668044
0.13706642 -0.23518148 0.032480825 -0.026965398 0.16962546 -0.056936163 -0.021217532 -0.108846106
-0.062142313 0.15341051 -0.09293259 -0.109181486 -0.14838143 0.003556347 -0.13340221 0.05246809
0.22336586 0.141679 0.0240742 0.011350448 -0.0030124516 -0.06883962 0.2959057 -0.046236232
-0.019112183 0.20133919 0.18946128 -0.090664126 -0.22727543 -0.111447215 -0.08729983 -0.10817903
-0.15474625 0.25344443 0.20262301 -0.011766122 -0.15525942 -0.16845039 0.19997841 0.43742475
0.7489097 0.12110679 0.15815733 0.47707954 0.34128693 0.06062713 0.97172606 0.043314915
0.14717118 0.20759867 -0.14123252 0.08396403 -0.09464168 0.21292056 0.25101683 -0.11934419
0.24127035 0.21481648 0.2866635 -0.14510916 0.24012955 -0.435771 -0.2595243 -0.11862036
0.124777555 -0.2700706 0.15079056 -0.0655012 0.05547838 0.14611918 -0.25936916 0.5096483
0.09281863 -0.08069783 0.11371602 0.12551016 0.25551832 0.04420457 -0.2913492 -0.19812593
-0.16279776 0.030131817 -0.31118104 0.24968079
00000000: 8173 b93d 3d4b e03e 7286 9c3d 769c dd3d
00000010: dcd7 c4be 0fa7 db3d 0a99 873d a5b0 b63c
00000020: 37fc ac3d 8d05 be3d 6014 873e ab71 293e
00000030: 3415 d53e c13d a6be d465 59bd d2b6 2c3e
00000040: 3b9d 33bc d0f2 1f3e 865f 8cbe 8d5e 883d
00000050: e856 2ebe 943c ad3e 0460 b0be 31ff 183d
00000060: 345d 553e 1ac7 9bbe 0e75 29be 3ae8 e93e
00000070: 3d31 263e 157a ef3d eaf9 1f3f 8967 813f
00000080: cb86 2f3f 178d f43e 037a 83bd 2059 013e
00000090: 5b8f ca3d 9d2c 6c3d bed6 cc3d c303 d93d
000000a0: 857c e9bd 3141 38bd a09d 81bd 48ce bb3e
000000b0: b53a 953d 377d 3d3e 8c26 7abe e36c 193e
000000c0: b9b3 dcbc c3cf 66be c900 c93e 5015 953e
000000d0: c7f3 7b3c 3e22 7abe d596 03be 9a12 97bd
000000e0: 9440 81be cdc8 eb3e 0505 0dbf 4cbb ba3e
000000f0: 17d0 e3bb b908 fb3e a695 b63d fee9 883c
00000100: 0e34 90be 35cf 7abc b002 fb3e df37 483d
00000110: fed1 e7bd 8284 d73d 7672 a6be 56bd 093e
00000120: ecc7 c93d 3410 01bc 5d82 c03b 02a5 973e
00000130: 5bc3 a2be 6146 813e 358f 9e3c b2fc 60be
00000140: 1c59 23bd 295c e53d c442 c43e 57fe 013e
00000150: f8f2 d63d b531 3cbd 48a7 743c 7e74 0a3e
00000160: 823e 93be 76a3 6b3e 167e 4f3e 1ed6 84bc
00000170: 9ebf 51bd 50da 843e 3e15 993e 47ae 2abe
00000180: 245b 0c3e 6ad3 70be 9d0a 053d 8ae6 dcbc
00000190: 4cb2 2d3e e535 69bd 64d0 adbc b5ea debd
000001a0: f088 7ebd a517 1d3e 7153 bebd 8b9a dfbd
000001b0: 4df1 17be 9a11 693b 979a 08be c8e8 563d
000001c0: 05ba 643e 4d14 113e 4237 c53c 3bf7 393c
000001d0: 8d6c 45bb c9fb 8cbd f480 973e 3462 3dbd
000001e0: 2791 9cbc dc2b 4e3e 2302 423e 1dae b9bd
000001f0: e4ba 68be 703e e4bd 41ca b2bd f88c ddbd
00000200: cd75 1ebe 78c3 813e 687c 4f3e b1c6 40bc
00000210: 53fc 1ebe 427e 2cbe 24c7 4c3e 23f6 df3e
00000220: 8cb8 3f3f d606 f83d fff3 213e c543 f43e
00000230: 29bd ae3e 2754 783d 0ac3 783f fb6a 313d
00000240: 0bb4 163e bf94 543e 429f 10be 55f5 ab3d
00000250: 7fd3 c1bd d907 5a3e 4785 803e ba6a f4bd
00000260: 930f 773e daf8 5b3e 8fc5 923e 7f97 14be
00000270: 85e4 753e 601d dfbe 5ee0 84be 3bef f2bd
00000280: 608b ff3d b246 8abe d768 1a3e 7e25 86bd
00000290: 4c3d 633d 44a0 153e 09cc 84be 5078 023f
000002a0: b217 be3d e744 a5bd f2e3 e83d bc85 003e
000002b0: 4cd3 823e da0f 353d b92b 95be 86e1 4abe
000002c0: 75b4 26be 00d7 f63c 1f53 9fbe 52ac 7f3e

fc_1.weight f4 [24, 20]
-0.17165038 0.012193858 0.23014086 -0.19553898 0.33596548 -0.08708568 0.13502388 -0.06550422
0.09043622 0.047979616 -0.089072 0.03820633 0.15433747 -0.28733382 0.25046912 0.30564737
-0.04015173 -0.17543864 0.06210101 -0.02493546 0.01815798 -0.32665756 -0.08135064 -0.027556082
0.015832938 -0.0646108 0.104779914 -0.22362988 0.6180584 0.20007654 0.13755175 -0.15070263
-0.035918143 -0.15735115 0.08870753 -0.0054303156 0.29377326 -0.186309 0.15708265 -0.13046668
0.23864125 -0.07942251 0.22565956 0.039476786 0.029541826 -0.21203633 0.14710984 -0.096965656
-0.14807071 -0.019316975 -0.33218652 0.184954 0.504402 0.03149758 0.050376542 0.08735797
-0.057808265 0.2000497 0.13355744 0.15630011 -0.1250387 0.0033851152 0.071261875 0.07946466
0.09741259 0.09079307 -0.5636588 0.20337455 0.292733 0.24964274 0.14072953 0.06437522
0.073788345 0.24700572 0.16836382 -0.21082084 0.110848136 -0.052544307 0.01882488 -0.0027210384
0.22831294 -0.15801941 -0.17228311 0.0023997435 0.09201006 -0.33595443 -0.38002667 0.12649806
-0.012381568 -0.0040522404 0.25444362 0.03519024 0.24269839 -0.365726 -0.06880743 0.12339751
-0.2543643 0.19729565 -0.17084788 -0.043340966 -0.1161617 -0.06848183 0.25924858 -0.19515257
0.18199165 0.0038543348 0.16293857 0.048874624 -0.13932562 0.1259916 0.036626905 0.18439843
0.20559314 0.042220343 -0.061867796 -0.16552031 -0.255991 0.1884258 0.04562936 0.50630516
0.14810345 -0.17628697 0.03592518 -0.11751018 -0.06657841 0.14457017 0.10437529 -0.01599817
0.40044507 0.022140604 -0.050871946 -0.24572149 -0.1078615 0.2465116 0.1674372 0.043639176
-0.25894275 -0.21595691 0.14732663 0.1578749 0.021944286 0.3247267 0.405246 -0.06307892
-0.11229362 0.07260573 0.15431127 0.10160569 0.16534123 0.22176783 -0.11399857 -0.16200624
-0.17381553 -0.14710608 0.21192478 -0.045407373 -0.36690968 0.22926573 -0.124508016 0.047623616
-0.09720488 0.30126125 0.0069486843 -0.29344094 -0.015342768 0.06176683 0.21412563 -0.0809146
-0.07868661 0.24244839 0.4199424 -0.091431536 0.020802725 -0.2073711 -0.3217932 0.21418145
-0.07934847 0.16826522 -0.23650268 -0.060916837 0.2582995 -0.17643674 -0.09298786 -0.2230415
-0.12996493 0.3090268 0.0807386 -0.09301758 0.32398883 0.11448005 -0.20662592 0.03382067
0.05254252 0.030940654 0.16440158 -0.08848167 0.2677055 0.15137646 -0.026197454 0.37083077
0.30057114 0.32408464 0.096412934 -0.09976796 0.34258896 -0.052061345 0.08101421 -0.24745087
0.09835928 0.18638061 0.38415894 0.3311201 -0.16038032 0.03948076 0.011526429 0.056304876
-0.27972248 0.08338969 -0.094803266 -0.18442012 -0.049276464 -0.0860426 0.3358764 -0.13640413
0.1969842 0.26602072 -0.12254434 0.05639279 0.101025075 -0.01696066 -0.18710805 -0.22552538
-0.107962444 -0.38809428 0.015887765 -0.06363289 0.360393 -0.04024884 -0.09575151 -0.061449446
-0.14004444 -0.3364953 -0.19919412 -0.05710969 -0.09771973 0.16608687 -0.19304433 -0.33517745
0.12287619 -0.32343432 -0.17481394 0.0043722936 0.19967663 0.00916194 -0.24235919 -0.049857434
00000000: 1ec5 2fbe bfc8 473c 0caa 6b3e 5f3b 48be
00000010: ab03 ac3e fa59 b2bd b343 0a3e 1427 86bd
00000020: a036 b93d 4686 443d 616b b6bd 3e7e 1c3d
00000030: a40a 1e3e 6b1d 93be 7d3d 803e d07d 9c3e
00000040: 2476 24bd 30a6 33be a15d 7e3d 7345 ccbc
00000050: 0bc0 943c a93f a7be 2a9b a6bd 4bbd e1bc
00000060: 14b4 813c ab52 84bd da96 d63d 3bff 64be
00000070: 1339 1e3f dde0 4c3e 5eda 0c3e ca51 1abe
00000080: e71e 13bd a920 21be 4bac b53d caf0 b1bb
00000090: 7369 963e c9c7 3ebe 46da 203e 0f99 05be
000000a0: 5f5e 743e 45a8 a2bd 4d13 673e 69b2 213d
000000b0: b301 f23c 0d20 59be f6a3 163e ee95 c6bd
000000c0: d99f 17be a23e 9ebc 5a14 aabe 9564 3d3e
000000d0: 7d20 013f 9b03 013d a257 4e3d bce8 b23d
000000e0: 5cc8 6cbd d4d9 4c3e 48c3 083e 230d 203e
000000f0: 250a 00be cfd8 5d3b bff1 913d 5ebe a23d
00000100: 4180 c73d b8f1 b93d f14b 10bf 6b41 503e
00000110: 1ae1 953e 59a2 7f3e 671b 103e 28d7 833d
00000120: 581e 973d 11ef 7c3e 9167 2c3e 6be1 57be
00000130: 5904 e33d b338 57bd a236 9a3c 7353 32bb
00000140: deca 693e d7cf 21be fc6a 30be 0445 1d3b
00000150: c56f bc3d 3802 acbe db92 c2be b588 013e
00000160: 0fdc 4abc a8c8 84bb 6f46 823e a423 103d
00000170: ed85 783e 7040 bbbe e9ea 8cbd d5b7 fc3d
00000180: 0a3c 82be df07 4a3e bff2 2ebe 4c86 31bd
00000190: 2fe6 edbd 3440 8cbd 3bbc 843e 13d6 47be
000001a0: 055c 3a3e 0299 7c3b 5ed9 263e c230 483d
000001b0: 60ab 0ebe f103 013e 1806 163d f1d2 3c3e
000001c0: 0287 523e 3def 2c3d 1669 7dbd 287e 29be
000001d0: 4111 83be b1f2 403e dae5 3a3d 379d 013f
000001e0: 6ea8 173e 9284 34be 4826 133d 2da9 f0bd
000001f0: 435a 88bd 340a 143e b6c2 d53d 980e 83bc
00000200: 2307 cd3e 3660 b53c 1a5f 50bd 6a9e 7bbe
00000210: 7de6 dcbd 896d 7c3e a874 2b3e febe 323d
00000220: 2594 84be cf23 5dbe cbdc 163e f5a9 213e
00000230: 81c4 b33c 9442 a63e 677c cf3e 852f 81bd
00000240: 33fa e5bd 50b2 943d c603 1e3e a516 d03d
00000250: 364f 293e 1b17 633e 1578 e9bd f7e4 25be
00000260: b3fc 31be faa2 16be cf02 593e 15fd 39bd
00000270: 96db bbbe a3c4 6a3e 0ffe febd fb10 433d
00000280: 5a13 c7bd ea3e 9a3e cab1 e33b e43d 96be
00000290: 3c60 7bbc 37ff 7c3d c043 5b3e 8eb6 a5bd
000002a0: 7226 a1bd 6444 783e b102 d73e 7540 bbbd
000002b0: 7a6a aa3c 1759 54be 14c2 a4be 6252 5b3e
000002c0: 7381 a2bd b84d 2c3e c22d 72be ef83 79bd
000002d0: d53f 843e d5ab 34be 6b70 bebd fe64 64be
000002e0: 8715 05be c338 9e3e 475a a53d 0080 bebd
000002f0: dde1 a53e 8474 ea3d bf95 53be 8b87 0a3d
00000300: d336 573d 4177 fd3c e358 283e e135 b5bd
00000310: b210 893e 6e02 1b3e 0b9c d6bc 88dd bd3e
00000320: 76e4 993e 6cee a53e 2574 c53d 2553 ccbd
00000330: d267 af3e 473e 55bd c7ea a53d c363 7dbe
00000340: 9770 c93d 8fda 3e3e 7bb0 c43e 9388 a93e
00000350: bd3a 24be 94b6 213d 59d9 3c3c f19f 663d
00000360: c937 8fbe 37c8 aa3d 3728 c2bd a1d8 3cbe
00000370: 1ed6 49bd 1a37 b0bd fef7 ab3e 86ad 0bbe
00000380: 3ab6 493e de33 883e 87f8 fabd 20fc 663d
00000390: 3ce6 ce3d 15f1 8abc 4199 3fbe 20f0 66be
000003a0: 6a1b ddbd 4bb4 c6be 0f27 823c f651 82bd
000003b0: 6e85 b83e f8db 24bd 5e19 c4bd 6ab2 7bbd
000003c0: cf67 0fbe 1d49 acbe 8bf9 4bbe daeb 69bd
000003d0: 4821 c8bd ad12 2a3e 6aad 45be 619c abbe
000003e0: 83a6 fb3d 2f99 a5be 6d02 33be 7545 8f3b
000003f0: 0878 4c3e f61b 163c 022d 78be 4f37 4cbd

fc_1.bias f4 [24]
0.09007825 0.4922281 0.20078239 0.2045971 0.46995744 0.8205536 0.4279647 0.422178
0.47334948 0.9201025 -0.3590427 0.87063646 -0.22417109 -0.3577131 0.92912185 0.25340992
0.71418923 1.050976 -0.52900916 1.1732802 -0.40649626 0.7444188 0.14020373 0.2623168
00000000: f27a b83d 5205 fc3e e699 4d3e e781 513e
00000010: 439e f03e cd0f 523f 301e db3e b727 d83e
00000020: dd5a f23e d68b 6b3f 72d4 b7be 08e2 5e3f
00000030: 1b8d 65be 2c26 b7be eeda 6d3f f2be 813e
00000040: 1bd5 363f 6286 863f 256d 07bf 0c2e 963f
00000050: 4720 d0be 3b92 3e3f 9191 0f3e 634e 863e

fc_2.weight f4 [12, 24]
0.11140577 -0.13863987 0.09055122 -0.23036571 0.18791957 0.4712266 0.004257696 -0.029405776
0.33416596 0.09195092 -0.017031424 0.117517725 -0.2746708 -0.030530844 0.23092237 0.077650316
-0.0039794436 0.035379335 -0.06734382 0.26795647 -0.339526 0.40327126 -0.20011362 0.21152654
-0.023360869 -0.093584955 0.23057756 -0.053094007 -0.19542187 0.342969 0.07118565 -0.004750468
-0.004152427 0.3818914 -0.024023123 -0.1104605 0.15169808 -0.10939323 0.15290909 -0.023883635
0.18219356 0.14599401 -0.1597565 0.39520112 -0.413967 0.36764893 -0.26531956 0.19128336
0.03724663 0.32578984 -0.06844592 -0.1763704 0.063513465 -0.21339338 0.10211809 -0.021228764
0.022895342 0.23970282 -0.32777593 0.30988964 -0.09013463 -0.009604835 0.23415972 0.10588737
0.21150695 0.34342372 0.0023176465 0.18906589 -0.11112924 0.04979459 -0.80179524 0.2751436
0.19239624 0.4250654 0.15803915 0.08625549 0.058559254 -0.0692534 0.030441815 -0.07281956
-0.0750481 0.17401458 0.25651434 0.2127417 0.25353748 0.33977157 -0.117553644 0.2203088
0.073083356 0.16470008 0.3955405 0.08713832 0.11300771 -0.15516464 -0.19761324 0.1208316
0.16003723 -0.08489683 0.21143098 0.14822617 0.34738362 0.2626145 -0.16976108 0.19006194
0.53003615 -0.24692897 0.28770933 0.094787255 0.10875124 -0.021072948 0.012279238 0.25441763
-0.15309879 0.121668056 0.051215522 0.023424048 0.0062572723 -0.2306674 -0.18285188 0.33664635
-0.059455793 -0.050912667 -0.09849514 -0.0003379743 0.37840694 0.084783144 -0.2031879 0.38302264
0.21256508 -0.090156145 0.2542521 0.33547202 -0.35158327 -0.24410981 0.4299051 0.363115
0.09557214 0.17425746 -0.07638089 0.17381437 0.066065006 0.2075304 0.32686386 -0.13452885
-0.12031271 0.14186102 0.09428525 0.23546258 0.21422496 -0.043584682 0.15529281 0.28883466
0.12047164 0.0074569383 0.031733792 -0.5347399 -0.12056066 0.12982282 -0.27365673 0.03241786
0.16564596 0.34489176 -0.20804895 0.26073757 -0.024511902 0.36419252 0.15920894 0.43295264
-0.010841348 0.06415881 -0.114077434 0.35370427 -0.12764116 -0.05016418 0.16644056 0.07583572
-0.042507317 0.20778209 -0.040420637 -0.10320446 -0.4189183 0.13099359 0.10061344 -0.3189624
0.23898046 -0.22089024 0.15955232 -0.10291344 -0.079596475 0.019918649 -0.24064459 0.21675736
-0.20021096 -0.11616622 -0.062667504 0.056077663 -0.36277023 0.31812352 0.07921725 0.058162224
-0.09631581 0.21703964 -0.23799293 -0.15317102 0.04530973 -0.13741477 0.0774086 -0.14241774
0.084073424 0.23776084 0.12057121 0.32528368 0.27233422 0.12262651 -0.000651957 0.15882711
-0.43660247 -0.09983141 0.24225204 0.17196172 0.1851504 0.31049183 -0.07162257 0.19948208
0.01228595 0.07539226 0.23858197 -0.39347154 0.16163076 0.16812402 -0.2656451 -0.48560253
0.055135343 -0.11557963 -0.2992259 0.039300174 0.06043251 -0.12810582 -0.11888345 0.30373704
0.17486645 0.31552356 -0.21365325 0.20760493 0.0052272864 -0.18066974 0.19816281 0.31261098
-0.091373965 0.03995011 0.044497192 -0.030740371 -0.082846075 -0.18304032 0.33720443 0.19439389
00000000: b528 e43d 9cf7 0dbe eb72 b93d fde4 6bbe
00000010: fd6d 403e 9d44 f13e 2584 8b3b 62e4 f0bc
00000020: cd17 ab3e c450 bc3d 7c85 8bbc 22ad f03d
00000030: a7a1 8cbe d21b fabc ea76 6c3e 2107 9f3d
00000040: fe65 82bb ece9 103d 8feb 89bd 9731 893e
00000050: 5ad6 adbe 9279 ce3e 96ea 4cbe 6a9a 583e
00000060: 4b5f bfbc 78a9 bfbd 861c 6c3e 1a79 59bd
00000070: ac1c 48be a299 af3e c8c9 913d d0a9 9bbb
00000080: 1511 88bb 4587 c33e 24cc c4bc 1d39 e2bd
00000090: be56 1b3e 8f09 e0bd 3394 1c3e 9da7 c3bc
000000a0: f390 3a3e 747f 153e 3597 23be cd57 ca3e
000000b0: 7cf3 d3be 7b3c bc3e f7d7 87be c9df 433e
000000c0: ec8f 183d edcd a63e 602d 8cbd 719a 34be
000000d0: 5913 823d cb83 5abe 4a23 d13d f2e7 adbc
000000e0: 038f bb3c a874 753e 3fd2 a7be dba9 9e3e
000000f0: 8198 b8bd 995d 1dbc 91c7 6f3e 7adb d83d
00000100: 4795 583e 3cd5 af3e a8e3 173b 7d9a 413e
00000110: ba97 e3bd 69f5 4b3d 7442 4dbf 9fdf 8c3e
00000120: 8503 453e 2ca2 d93e 04d5 213e b8a6 b03d
00000130: d4db 6f3d bad4 8dbd 1d61 f93c 6c22 95bd
00000140: d1b2 99bd e130 323e d955 833e f6d8 593e
00000150: aacf 813e 8af6 ad3e f7bf f0bd a198 613e
00000160: baac 953d 23a7 283e 4984 ca3e 9375 b23d
00000170: 9670 e73d 7be3 1ebe 205b 4abe 8f76 f73d
00000180: cde0 233e 64de adbd 5d81 583e 9ac8 173e
00000190: 44dc b13e 6875 863e d9d5 2dbe 999f 423e
000001a0: 73b0 073f f3da 7cbe a34e 933e d21f c23d
000001b0: f8b8 de3d 2da1 acbc db2e 493c 0743 823e
000001c0: eec5 1cbe 1a2d f93d 5ec7 513d cae3 bf3c
000001d0: ce09 cd3b 1334 6cbe 863d 3bbe e95c ac3e
000001e0: eb87 73bd cd89 50bd d2b7 c9bd 2532 b1b9
000001f0: 8ebe c13e c9a2 ad3d 7d10 50be 8b1b c43e
00000200: a9aa 593e c9a3 b8bd 552d 823e fdc2 ab3e
00000210: b902 b4be ecf7 79be 851c dc3e 36ea b93e
00000220: 53bb c33d 8c70 323e 966d 9cbd 65fc 313e
00000230: 174d 873d d982 543e b35a a73e eec1 09be
00000240: 8366 f6bd 0444 113e a018 c13d 1a1d 713e
00000250: ca5d 5b3e da85 32bd 1405 1f3e 23e2 933e
00000260: d6b9 f63d 5559 f43b 4bfb 013d b7e4 08bf
00000270: 82e8 f6bd 46f0 043e bc1c 8cbe 97c8 043d
00000280: 189f 293e a795 b03e c90a 55be 657f 853e
00000290: 2fcd c8bc 7177 ba3e ab07 233e f8ab dd3e
000002a0: e99f 31bc b265 833d 6ea1 e9bd ba18 b53e
000002b0: 5db4 02be f578 4dbd 656f 2a3e c24f 9b3d
000002c0: 271c 2ebd d4c4 543e 1c90 25bd dc5c d3bd
000002d0: 767c d6be 2f23 063e 6b0e ce3d 0a4f a3be
000002e0: 4bb7 743e 0d31 62be af61 233e 48c4 d2bd
000002f0: 7a03 a3bd 6f2c a33c 896b 76be a4f5 5d3e
00000300: 1a04 4dbe 8ee8 edbd d257 80bd b1b1 653d
00000310: 05bd b9be 16e1 a23e a73c a23d 833b 6e3d
00000320: 3941 c5bd a43f 5e3e 6bb4 73be ddd8 1cbe
00000330: b296 393d 75b6 0cbe 6688 9e3d f5d5 11be
00000340: b02e ac3d 9477 733e 0aee f63d 958b a63e
00000350: 646f 8b3e 9c23 fb3d 18e8 2aba 93a3 223e
00000360: 5c8a dfbe 6974 ccbd eb10 783e bc16 303e
00000370: 1198 3d3e c9f8 9e3e dbae 92bd 0845 4c3e
00000380: 024b 493c 4267 9a3d d54e 743e 1a75 c9be
00000390: 8982 253e b428 2c3e a202 88be e5a0 f8be
000003a0: 99d5 613d 03b5 ecbd 2334 99be 38f9 203d
000003b0: 1488 773d 2c2e 03be 2b79 f3bd 6c83 9b3e
000003c0: 3110 333e 4e8c a13e ebc7 5abe 6396 543e
000003d0: a849 ab3b 7d01 39be 31eb 4a3e 8c0e a03e
000003e0: 4622 bbbd baa2 233d b042 363d 3bd3 fbbc
000003f0: 34ab a9bd ec6e 3bbe 0fa6 ac3e 310f 473e

fc_2.bias f4 [12]
0.8632794 0.7389094 0.8605721 -0.2224445 -0.14126286 0.6224686 0.6589598 0.16760255
0.5386713 -0.10613739 0.57899594 0.010281934
00000000: e1ff 5c3f 2b29 3d3f 744e 5c3f 7ec8 63be
00000010: 36a7 10be 1a5a 1f3f 97b1 283f 01a0 2b3e
00000020: 5de6 093f 8f5e d9bd 1439 143f 8f75 283c

fc_3.weight f4 [5, 12]
-0.44215515 -0.76074463 -0.27953437 -0.14200783 0.24696249 0.40267268 -0.269142 0.0023528538
-0.30019453 -0.028789274 0.4506287 0.12339943 -0.014086025 0.17422067 -0.67958254 -0.0022985032
0.35730723 -0.24709488 0.10663086 0.13691224 -0.32028845 0.39227888 -0.5224495 0.09240338
-0.6712516 -0.002834088 0.19003361 0.34576756 -0.39272076 -0.3886728 -0.21592669 0.020106038
0.35172054 -0.26939723 0.15712577 0.05575003 0.16237064 -0.23179694 0.1946509 0.312465
0.3078571 0.18683454 -0.611683 -0.44022685 -0.25117654 -0.36629474 -0.17190178 -0.6432739
0.35776693 0.4996961 0.27901873 -0.34871528 -0.1913207 0.17052864 0.14909588 0.30968988
0.29231188 -0.4466284 0.22210069 -0.27683413
00000000: 2962 e2be 29c0 42bf 211f 8fbe 806a 11be
00000010: bce3 7c3e 1d2b ce3e fbcc 89be 5632 1a3b
00000020: 19b3 99be 7cd7 ebbc ceb8 e63e d7b8 fc3d
00000030: 12c9 66bc e766 323e 1ff9 2dbf 7ca2 16bb
00000040: f9f0 b63e 7106 7dbe 4861 da3d b932 0c3e
00000050: d9fc a3be c7d8 c83e 40bf 05bf fc3d bd3d
00000060: 25d7 2bbf 1bbc 39bb 2c98 423e 7208 b13e
00000070: b212 c9be 1f00 c7be e31b 5dbe 6bb5 a43c
00000080: b714 b43e 6fee 89be 94e5 203e 255a 643d
00000090: 7d44 263e 2d5c 6dbe 9152 473e 6afb 9f3e
000000a0: 729f 9d3e 8e51 3f3e 4297 1cbf 6a65 e1be
000000b0: 369a 80be fc8a bbbe 0507 30be 99ad 24bf
000000c0: 3a2d b73e 2bd8 ff3e 8bdb 8e3e cf8a b2be
000000d0: 93e9 43be 0f9f 2e3e 97ac 183e ac8f 9e3e
000000e0: e7a9 953e 7aac e4be 5d6e 633e 34bd 8dbe

fc_3.bias f4 [5]
-0.09229778 -0.19220725 -0.18643634 -0.020823453 0.5344722
00000000: 9e06 bdbd fad1 44be 2be9 3ebe f295 aabc
00000010: 2cd3 083f
